Saved_Models/dummy_network.onnx (onnx, 959 bytes, 2 tensors)

12 f4 [75, 2]
0	0x3cbb454a	0.022860188
1	0xbd6f5d49	-0.058438573
2	0x3da0579d	0.07829211
3	0x3dad7986	0.084704444
4	0x3d8ed436	0.0697407
5	0x3d9ce2c2	0.07660438
6	0xbd97bdec	-0.074092716
7	0x3d53c90b	0.0517054
8	0x3d330527	0.043706086
9	0x3d2d87b6	0.042365752
10	0x3bd2f662	0.0064380625
11	0xbd92e52b	-0.071726166
12	0xbde28be5	-0.11061839
13	0x3cfe4812	0.031040225
14	0x3c7034a7	0.014660991
15	0x3d2919f4	0.041284516
16	0xbc689f41	-0.014198125
17	0x3cb3948e	0.021921422
18	0x3d928c5b	0.07155677
19	0xbda6e2e3	-0.08148744
20	0x3d56da9a	0.05245457
21	0xbdd0b6b5	-0.101910986
22	0xbd84149e	-0.06449245
23	0x3db810f0	0.089876056
24	0x3c134447	0.008988447
25	0xbddcd3a8	-0.10782558
26	0xbdcaef89	-0.09908969
27	0xbc457a59	-0.012053096
28	0xbd44cebf	-0.04804873
29	0xbb8304d1	-0.003998377
30	0x3d5c3765	0.053763766
31	0x3d724279	0.059145425
32	0xbd38d1c8	-0.045121938
33	0x3cb0d7bd	0.021587247
34	0xbdd76636	-0.10517542
35	0x3d170050	0.036865532
36	0x3c5ce66b	0.01348267
37	0x3d387cd3	0.045040917
38	0xbd708303	-0.058718693
39	0x3d0fd08b	0.03511099
40	0x3d22f4b4	0.03978415
41	0x3d138eeb	0.03602497
42	0xbd903943	-0.07042172
43	0xbd8628d2	-0.065507546
44	0xbd34ed60	-0.04417169
45	0x3dcd8537	0.10035174
46	0xbd91ec0e	-0.07125102
47	0x3da62b00	0.0811367
48	0xbda12c74	-0.07869807
49	0xbdab5f0e	-0.083677396
50	0x3de96aa0	0.1139729
51	0xbd1e7d13	-0.0386935
52	0xbcaabb4a	-0.02084126
53	0xbd98e581	-0.074656494
54	0xbd4a8546	-0.049443506
55	0xbdace46e	-0.08442007
56	0xbdd9418f	-0.106082074
57	0xbdac866a	-0.08424075
58	0xbd245409	-0.040119205
59	0xbdaf0295	-0.08545414
60	0x3d3e3040	0.046432734
61	0x3dabd5d9	0.083903976
62	0x3d7c0b5a	0.061534263
63	0x3bb638dd	0.005560978
64	0x3c8213c6	0.01587857
65	0xbd70c213	-0.058778834
66	0x3c5a67c1	0.013330401
67	0x3dbd621f	0.09247231
68	0xbd8bf7e1	-0.068343885
69	0xbd4d296c	-0.05008833
70	0x3d52f46f	0.05150264
71	0x3d3533df	0.04423892
72	0xbdc7d4c7	-0.09757381
73	0x3cf12508	0.029436603
74	0xbdba00e2	-0.090822
75	0x3d945293	0.07242312
76	0x3d805edd	0.06268094
77	0x3dae5fdd	0.08514378
78	0xbdb240ea	-0.087037876
79	0x3dccf940	0.10008478
80	0x3d7dc7a3	0.061957967
81	0xbdde32dd	-0.10849545
82	0x3d5721a8	0.05252233
83	0xbd4d5173	-0.050126504
84	0x3de120fe	0.10992621
85	0x3cf8a1a9	0.030350523
86	0x3d89b94f	0.06724798
87	0xbd9bedd3	-0.07613721
88	0x3d82c01b	0.063842975
89	0x3ce8b790	0.028407842
90	0x3dbfa69d	0.09357951
91	0x3dac12e9	0.08402044
92	0x3d1a9d88	0.03774789
93	0x3d4e7ff3	0.05041499
94	0xbdddfade	-0.10838865
95	0x3cc694e0	0.024240911
96	0x3d955322	0.07291247
97	0x3dbaf5a7	0.09128886
98	0xbcfe07fc	-0.031009667
99	0x3d17b00b	0.037033122
100	0x3dd06614	0.1017572
101	0x3de0246b	0.10944446
102	0x3de586bd	0.1120734
103	0xbd49048e	-0.04907661
104	0xbd868eda	-0.065702155
105	0xbdba4ece	-0.09097062
106	0x3c97ea06	0.018544208
107	0x3dde71f2	0.10861577
108	0xbb16a34d	-0.0022985518
109	0xbca664bb	-0.020311704
110	0x3c2e894f	0.010652854
111	0xbd143d73	-0.036191415
112	0xbd649fd0	-0.05581647
113	0xbcfd3823	-0.030910557
114	0xbd8fcb6d	-0.07021222
115	0x3c6af13b	0.01433974
116	0x3d22bc39	0.039730284
117	0x3de0c306	0.10974698
118	0x3d9625c2	0.073314205
119	0x3d1d369c	0.038382158
120	0xbdec2642	-0.115307346
121	0xbd823f3f	-0.063597195
122	0xbd653290	-0.055956423
123	0x3d725d01	0.059170727
124	0x3d0c837e	0.03430509
125	0x3d2cb368	0.042163283
126	0x3dc77eb5	0.09740964
127	0xbdc05a7e	-0.0939226
128	0xbd93e668	-0.07221681
129	0xbd2d3316	-0.042285047
130	0x3c67cd63	0.014148089
131	0x3d62905d	0.055313457
132	0xbd0cf043	-0.03440882
133	0xbda9c3a9	-0.08289272
134	0xbd828f2d	-0.06374965
135	0xbdcec6cb	-0.100965105
136	0x3d69a0ed	0.057038236
137	0x3d813895	0.0630962
138	0x3dd4301a	0.10360737
139	0xbc6ffff1	-0.0146484235
140	0x3d881224	0.06644085
141	0x3dbf6414	0.0934526
142	0x3c812632	0.015765283
143	0x3c8e5a17	0.017376943
144	0xbdc6ab51	-0.09700645
145	0xbddc7201	-0.10763932
146	0xbb2a913b	-0.0026026506
147	0xbcf64165	-0.03006048
148	0x3caddc05	0.021223078
149	0x3dbad914	0.091234356

linear_layer.bias f4 [2]
0	0xbda02c5b	-0.0782096
1	0x3d60b75e	0.054862373
