METNetwork/Output/test_network.onnx (onnx, 17747 bytes, 8 tensors)

mlp.0.block.0.weight f4 [32, 43]
-0.08439276 0.012551964 0.0065979357 -0.13164803 0.069709964 -0.119300455 0.08946374 -0.04071247
-0.12500042 0.13572982 0.118734896 -0.075461045 -0.13936326 0.13306631 0.025297403 -0.056885105
-0.049538467 0.033009864 0.028908424 0.01879069 -0.080017254 0.0045700497 -0.07063363 -0.061591007
0.1177138 0.030316968 0.11672743 0.1108904 -0.12370173 -0.14231603 0.13595355 -0.029353134
-0.1204744 0.117102385 -0.14081198 -0.044812873 0.06578548 -0.104726635 0.06993473 0.117848456
-0.07406978 0.10539864 -0.062253386 -0.08379207 0.115071796 -0.07289153 0.14035894 0.026917355
0.15054506 -0.016228348 0.01199225 0.05246043 0.09748448 -0.06699345 0.08019916 0.12027541
-0.027999746 0.046752132 -0.064249255 0.14932883 0.03954951 0.062961 0.14032501 -0.07046029
-0.07554458 -0.0065293456 -0.023790648 0.11096213 0.055319138 -0.09379542 0.03372788 -0.10265229
0.0065224185 -0.040854927 0.040009975 -0.1097931 -0.04709388 -0.083719485 -0.029074792 -0.1132588
-0.006891353 0.008135274 -0.07248285 0.09272534 0.004507622 0.05601387 -0.0066218204 0.15353794
0.04018782 -0.14475355 -0.11521961 0.08169685 0.11812343 -0.059757724 0.13755868 0.12384154
-0.105776764 0.108903766 -0.0617302 0.048126083 -0.06882198 0.10934 -0.053067397 0.06649945
-0.09987863 -0.14920448 0.032269403 -0.049674068 -0.12597658 -0.08661087 0.115032084 -0.101658575
-0.099397056 -0.1264357 -0.124731295 -0.09179443 0.06614044 -0.025476748 -0.029877322 0.07505628
0.07934329 -0.008432974 -0.10703979 -0.06477454 -0.08728316 -0.122598745 0.10979643 -0.02393081
0.14448987 0.05240767 0.080864266 -0.13681746 0.00072864536 0.07688464 -0.116340004 -0.085501894
0.13355997 -0.0025484865 -0.066281945 -0.13913482 0.055584524 0.038609684 -0.045087192 0.06502548
0.06284964 0.12792262 -0.01276008 0.100201696 -0.13660267 -0.090225175 0.0062846965 -0.107040785
0.06906747 0.05607097 -0.024918571 0.07118524 -0.118186034 -0.0190183 0.0008032672 -0.026055062
-0.015038947 0.02027364 0.12873983 0.016127072 -0.0040842216 0.056657672 0.029214952 -0.1425846
-0.03811495 -0.09168855 0.13242635 0.05847607 -0.056805648 -0.04421715 -0.13341008 -0.09945029
-0.07943558 0.041719776 -0.031859357 0.02288238 0.03504678 0.023544943 -0.06685143 0.023800101
-0.0049063405 -0.09068187 -0.13981277 -0.09982852 0.13262501 -0.09322854 0.11501086 -0.008492138
0.0902374 -0.1297224 -0.11838789 -0.050474938 0.0038996292 -0.044770364 0.03226052 -0.11791638
-0.10089595 0.013622731 0.095463865 -0.04112214 0.05329985 0.070714265 -0.06517543 -0.06489361
-0.037147336 -0.12749903 -0.1364101 -0.0038741045 0.069741674 0.05102936 -0.03638956 0.12342579
0.10013062 0.12885126 -0.089089856 0.031175122 -0.13418539 -0.13171464 0.071992084 -0.049910873
0.13246405 -0.029926669 0.13853662 0.07620122 0.13017002 0.10445555 -0.07726764 0.0074527594
-0.06378819 -0.081969224 0.085298195 0.07581445 0.019335166 0.06754894 0.11223021 -0.06942253
-0.06766565 -0.04388401 -0.007306643 -0.14334519 -0.10248641 -0.080078974 -0.117912516 -0.13989656
-0.09946024 0.11716763 -0.13487333 -0.06413534 0.069673516 0.031185392 0.005160238 0.012519331
00000000: 1dd6 acbd c1a6 4d3c 7f33 d83b bece 06be
00000010: 19c4 8e3d cc53 f4bd c438 b73d 1ec2 26bd
00000020: 1c00 00be c2fc 0a3e 482b f33d 528b 9abd
00000030: 3eb5 0ebe 8942 083e 803c cf3c 5b00 69bd
00000040: d9e8 4abd 5a35 073d 5cd1 ec3c efee 993c
00000050: 16e0 a3bd 5bc0 953b 5da8 90bd da46 7cbd
00000060: ef13 f13d 4a5b f83c ca0e ef3d 821a e33d
00000070: 5557 fdbd 4bbb 11be 6837 0b3e fc75 f0bc
00000080: 48bb f6bd 60d3 ef3d 0431 10be b48d 37bd
00000090: 8aba 863d eb7a d6bd f139 8f3d 885a f13d
000000a0: e6b1 97bd 3edb d73d 68fd 7ebd 2d9b abbd
000000b0: c3aa eb3d 2848 95bd 41ba 0f3e c981 dc3c
000000c0: 7c28 1a3e 50f1 84bc 247b 443c bfe0 563d
000000d0: f1a5 c73d dd33 89bd 753f a43d f452 f63d
000000e0: b95f e5bc 2a7f 3f3d 1d95 83bd a8e9 183e
000000f0: abfe 213d b2f1 803d 5cb1 0f3e 7c4d 90bd
00000100: 1eb7 9abd 1ff4 d5bb 9be4 c2bc 1d40 e33d
00000110: 5296 623d d017 c0bd 3f26 0a3d 5d3b d2bd
00000120: 03ba d53b 7f57 27bd 80e1 233d 34db e0bd
00000130: 83e5 40bd 1f75 abbd 422e eebc 3bf4 e7bd
00000140: dcd0 e1bb d049 053c e371 94bd c8e6 bd3d
00000150: adb4 933b cd6e 653d dbfb d8bb 0d39 1d3e
00000160: fc9b 243d 463a 14be 42f8 ebbd ae50 a73d
00000170: b2ea f13d 84c4 74bd 2fdc 0c3e a2a0 fd3d
00000180: 7da1 d8bd f008 df3d ced8 7cbd db1f 453d
00000190: 8af2 8cbd a6ed df3d 335d 59bd dd30 883d
000001a0: 2b8d ccbd 0fc9 18be ec2c 043d 0977 4bbd
000001b0: 0100 01be 0a61 b1bd f195 eb3d 5f32 d0bd
000001c0: af90 cbbd 5c78 01be 1f73 ffbd b8fe bbbd
000001d0: a474 873d 9db4 d0bc 49c1 f4bc 1bb7 993d
000001e0: bc7e a23d 752a 0abc ad37 dbbd 84a8 84bd
000001f0: 83c1 b2bd 0d15 fbbd f3dc e03d 8c0a c4bc
00000200: 27f5 133e 6da9 563d 2a9c a53d e019 0cbe
00000210: 9002 3f3a b275 9d3d ab43 eebd 9e1b afbd
00000220: f2c3 083e 8204 27bb d4be 87bd 5c79 0ebe
00000230: 99ac 633d 3025 1e3d 59ad 38bd 142c 853d
00000240: 50b7 803d 26fe 023e a80f 51bc 8c36 cd3d
00000250: 92e1 0bbe fac7 b8bd dbef cd3b 3338 dbbd
00000260: 3f73 8d3d acaa 653d 0822 ccbc 91c9 913d
00000270: 850b f2bd 44cc 9bbc 5992 523a 6d71 d5bc
00000280: ea65 76bc e814 a63c 60d4 033e ec1c 843c
00000290: efd4 85bb e011 683d 3254 ef3c b301 12be
000002a0: 6c1e 1cbd 35c7 bbbd c69a 073e 9b84 6f3d
000002b0: 0aad 68bd 0b1d 35bd a79c 08be 98ac cbbd
000002c0: 1faf a2bd 5be2 2a3d f57e 02bd d473 bb3c
000002d0: 368d 0f3d 53e1 c03c 67e9 88bd 6ef8 c23c
000002e0: 5ec5 a0bb 6bb7 b9bd 142b 0fbe e572 ccbd
000002f0: dace 073e 9bee bebd d08a eb3d 9c22 0bbc
00000300: 63ce b83d f3d5 04be 5a75 f2bd cfbe 4ebd
00000310: ec90 7f3b 2161 37bd 9b23 043d 257e f1bd
00000320: 89a2 cebd e031 5f3c 8f82 c33d b06f 28bd
00000330: f250 5a3d a4d2 903d b27a 85bd f1e6 84bd
00000340: ce27 18bd 1b8f 02be 17af 0bbe b0e4 7dbb
00000350: b9d4 8e3d 2a04 513d 380d 15bd a9c6 fc3d
00000360: 4811 cd3d 96f1 033e be74 b6bd f862 ff3c
00000370: e567 09be 34e0 06be 9670 933d 586f 4cbd
00000380: a8a4 073e c628 f5bc 8bdc 0d3e 630f 9c3d
00000390: 4a4b 053e cbec d53d 7f3e 9ebd 4736 f43b
000003a0: 62a3 82bd 7bdf a7bd d2b0 ae3d 9b44 9b3d
000003b0: c864 9e3c 1957 8a3d f4d8 e53d 662d 8ebd
000003c0: 4a94 8abd b8bf 33bd 906c efbb 15c9 12be
000003d0: 65e4 d1bd 7200 a4bd 1e7c f1bd 0b41 0fbe
000003e0: cfb1 cbbd 95f5 ef3d 3c1c 0abe 6459 83bd
000003f0: fdb0 8e3d 8278 ff3c 3717 a93b e11d 4d3c

mlp.0.block.0.bias f4 [32]
-0.061965626 0.06540051 -0.021910885 -0.0014737815 -0.016579947 -0.14636421 0.044831567 0.011156655
0.06597773 0.046727356 -0.06397027 0.14455862 -0.09336648 0.0043726405 0.12867591 -0.076349035
-0.13886997 -0.04002397 0.08899957 -0.03988335 -0.136591 0.079025015 0.0710814 -0.06540798
0.07090101 -0.0100914845 -0.10725483 0.11480905 -0.014573057 -0.08845199 -0.12104204 -0.05991447
00000000: abcf 7dbd b4f0 853d 757e b3bc e72b c1ba
00000010: abd2 87bc 80e0 15be 4ea1 373d 67ca 363c
00000020: 551f 873d 2f65 3f3d d802 83bd 2d07 143e
00000030: ed36 bfbd 5e48 8f3b 9ec3 033e e25c 9cbd
00000040: ee33 0ebe 2df0 23bd 6845 b63d b95c 23bd
00000050: 83de 0bbe ded7 a13d 2093 913d 9ef4 85bd
00000060: 8c34 913d c156 25bc 6ca8 dbbd 0221 eb3d
00000070: d5c3 6ebc 5126 b5bd e4e4 f7bd e068 75bd

mlp.1.block.0.weight f4 [2, 32]
0.06694931 0.017244566 0.08952909 -0.07533203 0.14464849 0.049850542 0.1524758 0.022229603
0.09089568 -0.030044014 -0.05740975 -0.16735263 -0.0032617878 -0.101273425 0.17109637 -0.1215805
-0.14975922 -0.16086148 0.17656189 -0.03183553 -0.113393396 -0.17554942 0.031313077 -0.0039806045
0.13594083 -0.15228033 -0.073466875 -0.08848847 0.0817846 0.14633529 0.056110237 -0.013230303
0.15797724 -0.14899002 -0.026174685 0.028074285 0.06532893 -0.06424464 0.1419756 -0.15718028
0.09996395 -0.020569762 -0.11086722 0.070868514 0.1292104 -0.17594112 -0.14527473 -0.0057919766
0.12524514 -0.064371325 0.06784722 0.07718142 -0.03137997 -0.024203189 -0.10679468 0.106971286
0.1611622 -0.1416017 0.05568609 -0.099004045 0.14458524 0.031492937 0.15100692 -0.1321992
00000000: b81c 893d 7a44 8d3c 075b b73d ae47 9abd
00000010: bc1e 143e 1530 4c3d 9e22 1c3e db1a b63c
00000020: 8427 ba3d dd1e f6bc 7c26 6bbd 7d5e 2bbe
00000030: b8c3 55bb 7168 cfbd e333 2f3e 32ff f8bd
00000040: 7b5a 19be dfb8 24be a4cc 343e f965 02bd
00000050: cc3a e8bd 3ac3 33be 2442 003d bb6f 82bb
00000060: 1334 0b3e 60ef 1bbe cd75 96bd 7139 b5bd
00000070: af7e a73d ebd8 153e d9d3 653d eac3 58bc
00000080: c9c4 213e d790 18be 4b6c d6bc 0bfc e53c
00000090: 2dcb 853d b292 83bd 0d62 113e def3 20be
000000a0: e6b9 cc3d eb81 a8bc 5a0e e3bd 8323 913d
000000b0: bb4f 043e e929 34be e6c2 14be 9fca bdbb
000000c0: 4340 003e 1dd5 83bd 7cf3 8a3d 4b11 9e3d
000000d0: 4988 00bd c445 c6bc 2bb7 dabd c313 db3d
000000e0: b407 253e 0900 11be 1917 643d a2c2 cabd
000000f0: 270e 143e bdfe 003d 8fa1 1a3e 3a5f 07be

mlp.1.block.0.bias f4 [2]
0.118768126 0.028166573
00000000: b43c f33d 96bd e63c

238 f4 [43]
3.957245 3.6530414 4.05417 4.0336967 5.4069953 75657.13 -26.918982 310320.0
74521.22 -11.506768 324492.94 74928.24 -33.22756 306193.84 74633.09 -30.707788
306863.5 -769.2211 23.888588 22822.95 -961.8702 12.680107 19150.357 25.124647
-1.1763656 1170.6849 317.2642 -7.2967668 63238.746 -3752.3833 -1.0451076 319635.53
38.255287 20.434505 17.965706 69.7646 0.5146079 0.3733753 0.02131889 4.7898383
1.0463977 41033.81 21216.725
00000000: 8143 7d40 6ecb 6940 c3bb 8140 0b14 8140
00000010: 1b06 ad40 91c4 9347 135a d7c1 0086 9748
00000020: 9c8c 9147 b91b 38c1 9e71 9e48 1f58 9247
00000030: 05e9 04c2 3b82 9548 8cc4 9147 8da9 f5c1
00000040: f0d5 9548 274e 40c4 d41b bf41 e64d b246
00000050: b177 70c4 b8e1 4a41 b79c 9546 47ff c841
00000060: 2693 96bf eb55 9244 d1a1 9e43 1d7f e9c0
00000070: bf06 7747 2286 6ac5 16c6 85bf 7112 9c48
00000080: 6a05 1942 de79 a341 c4b9 8f41 7a87 8b42
00000090: 58bd 033f 0c2b bf3e f4a4 ae3c 5b46 9940
000000a0: 5cf0 853f cf49 2047 73c1 a546

239 f4 [43]
2.4339812 2.3347228 2.4563282 2.446979 6.4680505 66446.375 38099.16 170753.56
67637.9 40385.63 173354.31 66669.5 38797.734 170349.12 66685.945 38890.93
170286.88 29411.512 26790.818 37138.062 28152.941 25882.533 35609.016 7193.359
6165.143 9474.167 10135.482 10002.92 29989.01 20222.547 19974.098 126392.91
12.719998 6.396405 5.810208 26.686378 0.6355917 0.535299 0.14576153 1.7419517
1.3828952 57167.89 23606.904
00000000: 59c6 1b40 196c 1540 7b34 1d40 4e9b 1c40
00000010: 45fa ce40 30c7 8147 29d3 1447 64c0 2648
00000020: f31a 8447 a1c1 1d47 944a 2948 c036 8247
00000030: bc8d 1747 485b 2648 f93e 8247 eeea 1747
00000040: b84b 2648 06c7 e546 a34d d146 1012 1147
00000050: e2f1 db46 1135 ca46 0419 0b47 dfca e045
00000060: 25a9 c045 ab08 1446 ee5d 1e46 ae4b 1c46
00000070: 054a ea46 18fd 9d46 320c 9c46 74dc f647
00000080: 1d85 4b41 5aaf cc40 39ed b940 b47d d541
00000090: 23b6 223f 5b09 093f 8342 153e 46f8 de3f
000000a0: b602 b13f e44f 5f47 cf6d b846

240 f4 [2]
50460.562 23297.703
00000000: 901c 4547 6803 b646

241 f4 [2]
60709.25 -1.889787
00000000: 4025 6d47 8ae4 f1bf
