METNetwork/Output/test_network.onnx (onnx, 664436 bytes, 46 tensors)

mlp.0.block.0.weight f4 [128, 74]
0.053687856 0.025405297 0.030295616 0.037473917 -0.0033889115 0.043457627 0.10735054 0.006378626
0.09871068 0.017294498 0.07065762 0.05348289 0.044648644 -0.099744976 0.09647638 0.046350174
0.0031126952 -0.05740529 -0.09842646 0.031094367 0.06926083 -0.024854703 0.08813265 0.007133004
0.053873513 -0.06299335 0.08599697 -0.0011757313 -0.0148201035 -0.11088162 0.05735833 0.044042863
0.044226985 0.08270616 -0.029739093 0.02616789 0.04092729 -0.05978728 -0.052286934 -0.07376948
0.015889874 0.024954844 0.037381712 0.08709159 0.08451955 0.08223219 -0.03296871 0.058035742
0.06042056 0.119641416 0.07846488 0.08998693 -0.0667382 0.06909897 0.062457487 -0.08486112
0.096989855 -0.0667008 -0.030462762 -0.025615415 -0.09865875 0.07611369 -0.04612769 -0.015038788
-0.018300144 0.009031251 0.07347794 -0.08937038 -0.06306036 0.04008294 -0.07031355 0.07107744
-0.039737966 0.07252138 0.06699452 -0.07916811 -0.032834895 -0.0652551 -0.008550956 -0.036836963
0.10299901 0.053980842 -0.03952694 0.061738998 -0.01746966 0.0465566 0.010975163 -0.02396328
-0.021760782 -0.06394145 -0.026545132 0.077814 -0.016892387 -0.079358906 0.0294771 -0.06132359
0.08390894 -0.044025775 -0.016344046 -0.010536923 0.042005252 0.08287469 0.046706982 -0.004440429
-0.042120717 0.077682756 0.012458153 -0.005374672 -0.04504178 0.06476059 0.07343629 -0.045026798
-0.056935262 -0.01823558 0.0733797 0.09060498 -0.09440806 -0.013081891 -0.02414764 -0.11213668
-0.017176894 0.080219865 -0.036552694 0.09417616 -0.019100588 0.0071348776 0.0026217792 -0.03545888
0.009740014 -0.041725855 -0.10109391 0.069974385 0.0015702609 -0.03287775 -0.0971115 -0.010055749
-0.005055904 0.025268475 0.09276646 0.059780676 -0.056875966 0.02080249 -0.040740427 -0.059673708
0.06666719 -0.0055390354 0.07445891 -0.038253386 0.08619209 -0.061708964 0.07303712 0.02524035
0.111821234 0.021345215 -0.060909502 0.03595984 0.037221354 -0.11728617 -0.050565086 0.0635219
0.0329823 0.002506151 -0.05643894 -0.010156213 0.0068271393 0.063909695 0.119184636 -0.008843372
-0.0058034826 -0.025642019 0.09732328 -0.008310946 -0.033924643 -0.11114336 0.026103592 0.010523907
0.055174373 -0.012988251 -0.012150933 0.024316398 -0.024169868 0.008244888 -0.09495735 0.091907285
0.00077136466 0.09212094 0.01658377 -0.028099855 0.04355569 -0.07006246 0.115598865 0.10627182
0.13275415 0.05543718 -0.035492565 -0.0025404035 -0.048293225 0.092915215 0.061106358 -0.06188917
0.00814292 -0.009707293 0.13037586 0.08422182 -0.01669609 -0.09711512 0.013706208 0.08252897
-0.054593384 0.024187736 -0.01866308 0.0046330625 -0.035729274 -0.06646569 -0.07333696 -0.04877179
0.10489299 -0.050584584 -0.025475902 0.06755808 -0.076530844 0.08002721 0.054793537 -0.039086107
-0.09884259 0.11328176 -0.051016465 0.04244709 -0.06998952 -0.020721085 0.027793325 -0.046947245
0.045251083 -0.008676217 -0.03705503 0.08188401 0.10536818 -0.02389315 0.08427172 -0.018512327
-0.041784167 0.06448654 0.025804712 -0.056065265 0.077824205 -0.0075158807 -0.073333554 -0.17032962
-0.016042054 0.03250317 0.07811887 -0.046509106 0.03138091 -0.0065485677 -0.08121437 0.09163849
00000000: cce7 5b3d c51e d03c 832e f83c 407e 193d
00000010: 8018 5ebb a000 323d 9ada db3d cb03 d13b
00000020: d328 ca3d 31ad 8d3c f1b4 903d e010 5b3d
00000030: 7fe1 363d 1847 ccbd 6995 c53d aed9 3d3d
00000040: 5cfe 4b3b cf21 6bbd d093 c9bd 9db9 fe3c
00000050: 9fd8 8d3d 179c cbbc e47e b43d f9bb e93b
00000060: 79aa 5c3d a802 81bd 2e1f b03d ff1a 9aba
00000070: 05d0 72bc e715 e3bd 91f0 6a3d 4a66 343d
00000080: 5b27 353d d961 a93d 669f f3bc 0b5e d63c
00000090: 60a3 273d 82e3 74bd d32a 56bd 7414 97bd
000000a0: 7b2b 823c 1a6e cc3c 911d 193d 135d b23d
000000b0: 9618 ad3d 5a69 a83d 330a 07bd e3b6 6d3d
000000c0: 8d7b 773d 8f06 f53d 32b2 a03d 114b b83d
000000d0: 0aae 88bd c383 8d3d 6cd3 7f3d abcb adbd
000000e0: 9ea2 c63d 6e9a 88bd 0b8d f9bc 6bd7 d1bc
000000f0: 990d cabd 7fe1 9b3d 63f0 3cbd 4065 76bc
00000100: 2fea 95bc d0f7 133c 9a7b 963d d107 b7bd
00000110: ca25 81bd 022e 243d 8d00 90bd 0d91 913d
00000120: 47c4 22bd 1786 943d 6c34 893d e422 a2bd
00000130: e27d 06bd 77a4 85bd 4f19 0cbc 5be2 16bd
00000140: 25f1 d23d 041b 5d3d 00e7 21bd 08e2 7c3d
00000150: 881c 8fbc 22b2 3e3d 2cd1 333c a44e c4bc
00000160: ab43 b2bc bcf3 82bd 2d75 d9bc f25c 9f3d
00000170: e761 8abc ec86 a2bd f679 f13c 722e 7bbd
00000180: 73d8 ab3d 5f54 34bd f3e3 85bc 0fa3 2cbc
00000190: b30d 2c3d 35ba a93d d24f 3f3d 0581 91bb
000001a0: c686 2cbd 2318 9f3d 481d 4c3c 041e b0bb
000001b0: bb7d 38bd 33a1 843d c465 963d 056e 38bd
000001c0: f334 69bd c862 95bc 1948 963d 1b8f b93d
000001d0: 0359 c1bd 6e55 56bc 46d1 c5bc eaa7 e5bd
000001e0: 8fb6 8cbc 504a a43d 47b8 15bd 6edf c03d
000001f0: d678 9cbc b1cb e93b 28d2 2b3b 553d 11bd
00000200: 9494 1f3c bbe8 2abd 530a cfbd bb4e 8f3d
00000210: 36d1 cd3a d2aa 06bd 65e2 c6bd dec0 24bc
00000220: ffab a5bb d5ff ce3c 57fc bd3d 95dc 743d
00000230: c6f6 68bd fc69 aa3c 6fdf 26bd 6b6c 74bd
00000240: cf88 883d cc80 b5bb ea7d 983d 95af 1cbd
00000250: 7a85 b03d 8ac2 7cbd 7c94 953d dac4 ce3c
00000260: 8802 e53d 29dc ae3c 3e7c 79bd a04a 133d
00000270: 6b75 183d bb33 f0bd 561d 4fbd c517 823d
00000280: 7318 073d 3d3e 243b 852c 67bd 3f66 26bc
00000290: 32b6 df3b 16e3 823d 1317 f43d cae3 10bc
000002a0: 242b bebb 360f d2bc 6e51 c73d a22a 08bc
000002b0: 91f4 0abd 219f e3bd 33d7 d53c 776c 2c3c
000002c0: 86fe 613d accc 54bc b514 47bc 2f33 c73c
000002d0: e3ff c5bc 9115 073c 0079 c2bd e339 bc3d
000002e0: 6835 4a3a e7a9 bc3d b0da 873c ab31 e6bc
000002f0: 7467 323d e87c 8fbd 19bf ec3d 0aa5 d93d
00000300: b4f0 073e 1912 633d a760 11bd e67c 26bb
00000310: 1ecf 45bd 554a be3d a94a 7a3d 807f 7dbd
00000320: e269 053c 560b 1fbc 4081 053e 7d7c ac3d
00000330: 3dc6 88bc 4be4 c6bd 0190 603c f304 a93d
00000340: 509d 5fbd 5c25 c63c 51e3 98bc f2d0 973b
00000350: dc58 12bd 2a1f 88bd b031 96bd eec4 47bd
00000360: 23d2 d63d c831 4fbd d7b2 d0bc e45b 8a3d
00000370: 34bc 9cbd 4ee5 a33d 306f 603d c118 20bd
00000380: fc6d cabd 4400 e83d a4f6 50bd 00dd 2d3d
00000390: aa56 8fbd 44bf a9bc d4ae e33c c14b 40bd
000003a0: 3359 393d b126 0ebc 04c7 17bd ceb2 a73d
000003b0: 46cb d73d 91bb c3bc a796 ac3d 2aa7 97bc
000003c0: e025 2bbd 8511 843d 6764 d33c b1a4 65bd
000003d0: 4c62 9f3d c747 f6bb e72f 96bd e36a 2ebe
000003e0: a06a 83bc 0b22 053d c9fc 9f3d 5580 3ebd
000003f0: 4589 003d 5e95 d6bb b853 a6bd f6ac bb3d

mlp.0.block.0.bias f4 [128]
-0.15715478 0.06292671 -0.14004152 0.032629896 -0.155894 -0.1545111 -0.0314341 0.04128836
0.0031681778 0.0056487513 -0.036311258 -0.12759528 -0.10505163 -0.08673029 -0.03585621 0.05136364
0.08609994 0.17848657 -0.00027256008 0.11528726 0.077050194 -0.08956456 0.16729896 0.028808009
-0.003222157 0.098599866 -0.12874569 0.089806244 -0.014495949 -0.12965079 0.009939863 0.05092039
0.08937844 0.08806426 -0.01199562 -0.15182015 -0.13374636 0.1227319 0.16089144 0.08306909
0.07109888 0.046411328 0.12219595 -0.12840022 -0.1352037 -0.028583305 0.12153251 0.025201594
0.0977397 0.12934034 -0.024969842 -0.03309696 -0.11426154 0.0137850465 0.1089788 -0.010776065
0.029648561 0.13235316 -0.013478627 0.10911454 -0.097045906 0.0634525 -0.096429415 -0.08479383
0.18489982 0.050010823 -0.108038 -0.024031527 -0.037734304 -0.051601984 -0.14709704 0.025043406
0.17613818 0.13812779 0.102108926 0.022687078 0.0038407666 -0.08934361 0.08185944 -0.08490006
0.13129891 -0.119987205 0.061168864 -0.020127196 0.13395059 -0.10053747 -0.06467476 0.029795235
0.0051840283 0.07209506 -0.12882681 0.043841876 0.16857773 -0.014534543 -0.029407924 -0.030398006
-0.07251818 -0.0155879455 -0.06013077 0.120977744 -0.124904856 -0.05515567 0.17147897 -0.11223769
0.01628949 -0.09910863 0.03954066 0.056675162 -0.08142922 0.06741072 -0.03514172 -0.10010856
0.14648837 0.15845114 0.16663863 0.056901716 -0.043684628 -0.03245339 0.0064292382 -0.16479476
-0.021103235 0.039254475 -0.13026828 -0.048377212 0.09431302 0.0453158 0.14656575 -0.09756779
00000000: 2fed 20be b8df 803d 0b67 0fbe eda6 053d
00000010: ada2 1fbe 2838 1ebe 0bc1 00bd fc1d 293d
00000020: 34a1 4f3b 2919 b93b 1dbb 14bd 56a8 02be
00000030: 4f25 d7bd a69f b1bd f6dd 12bd ae62 523d
00000040: 2a55 b03d 2fc5 363e 65e6 8eb9 ba1b ec3d
00000050: 7ecc 9d3d a06d b7bd 6b50 2b3e c6fe eb3c
00000060: d32a 53bb baee c93d e9d5 03be 56ec b73d
00000070: 6b80 6dbc 2dc3 04be cfda 223c e691 503d
00000080: 0b0c b73d 095b b43d 4789 44bc be76 1bbe
00000090: cef4 08be dd5a fb3d bac0 243e 2120 aa3d
000000a0: 4a9c 913d ce19 3e3d df41 fa3d 597b 03be
000000b0: d772 0abe 8927 eabc 09e6 f83d 9373 ce3c
000000c0: c02b c83d cb71 043e 8e8d ccbc ae90 07bd
000000d0: f401 eabd adda 613c 4730 df3d 188e 30bc
000000e0: 8ae1 f23c 9687 073e 76d5 5cbc 7277 df3d
000000f0: 01c0 c6bd 62f3 813d c97c c5bd 63a8 adbd
00000100: 6156 3d3e 26d8 4c3d 0743 ddbd c4dd c4bc
00000110: 498f 1abd 9a5c 53bd 9ba0 16be d427 cd3c
00000120: 915d 343e 5f71 0d3e 7c1e d13d 40da b93c
00000130: 5fb5 7b3b c8f9 b6bd eca5 a73d 15e0 adbd
00000140: 3973 063e dabb f5bd 348c 7a3d cae1 a4bc
00000150: 582a 093e 97e6 cdbd 3374 84bd 2315 f43c
00000160: c8de a93b 93a6 933d 2deb 03be 8a93 333d
00000170: a49f 2c3e 4b22 6ebc e3e8 f0bc 3d05 f9bc
00000180: 6984 94bd 9564 7fbc af4b 76bd 2ec3 f73d
00000190: 1ece ffbd e9ea 61bd 2f98 2f3e e0dc e5bd
000001a0: 8971 853c 77f9 cabd 63f5 213d 3724 683d
000001b0: 5dc4 a6bd a20e 8a3d c4f0 0fbd b705 cdbd
000001c0: 0c01 163e 0441 223e 51a3 2a3e c611 693d
000001d0: a7ee 32bd d9ed 04bd 5cac d23b f5bf 28be
000001e0: b1e0 acbc 4dc9 203d 0c65 05be 2f27 46bd
000001f0: 2f27 c13d 0f9d 393d 5515 163e 9fd1 c7bd

mlp.0.block.2.weight f4 [128]
0.9969698 0.9459017 0.993795 1.0043105 1.0084832 1.0227022 0.99299735 0.989542
0.9874078 0.99035966 1.0024313 1.009768 0.99678 1.0027722 1.0133113 0.99419534
1.0170618 1.0205076 0.99394804 1.0039049 1.0001512 0.9852863 1.0124817 0.9873139
0.9949546 0.99610263 0.9864047 1.0031834 1.0022247 1.0111184 0.98388505 0.98987865
0.98211414 0.99257845 0.9721435 0.9973445 0.9949733 1.004914 0.9815221 0.9756626
0.99394095 0.9841913 0.9948159 0.99457234 0.9933886 1.0017338 0.9948943 1.0031693
0.9704341 1.0076759 0.997161 1.0113828 0.9942476 0.9828492 1.0138782 0.9918562
1.016462 0.98398757 0.9758987 1.0034184 0.9941806 0.99446136 1.0039445 1.0019239
0.99728954 0.9805321 0.9880076 0.98554206 1.0030301 1.014505 1.0104133 1.0071836
1.0302545 1.0111023 0.980378 1.0171205 1.0279145 0.9782676 1.0113665 1.0053159
1.0071304 0.9956693 1.014076 0.9924058 1.0098422 1.0059928 1.0013747 0.9945149
1.058119 0.9850847 0.98061186 1.0125629 0.9981674 1.0057282 0.9659678 0.9964883
0.9915051 0.9726607 0.97831285 0.9948755 1.0129045 0.9845914 1.0192878 1.0087957
0.98735005 0.9982586 0.98370504 1.0153625 1.0144322 0.9808799 0.98063517 1.0024593
0.99195945 0.993044 1.0016205 0.9810695 1.0055867 0.9839086 0.9919252 0.9840009
1.0105306 1.0110345 1.0161587 1.0168259 0.9804352 0.9767896 1.0516192 1.0008632
00000000: 6a39 7f3f 9d26 723f 5969 7e3f 3f8d 803f
00000010: fa15 813f e8e7 823f 1335 7e3f a052 7d3f
00000020: c2c6 7c3f 3688 7d3f ab4f 803f 1440 813f
00000030: f92c 7f3f d75a 803f 2fb4 813f 9683 7e3f
00000040: 152f 823f fe9f 823f 6173 7e3f f57f 803f
00000050: f404 803f b93b 7c3f 0099 813f 9bc0 7c3f
00000060: 58b5 7e3f 9500 7f3f 0585 7c3f 5068 803f
00000070: e648 803f 546c 813f e4df 7b3f b068 7d3f
00000080: d56b 7b3f 9f19 7e3f 65de 783f f851 7f3f
00000090: 92b6 7e3f 06a1 803f 0845 7b3f 06c5 793f
000000a0: ea72 7e3f f6f3 7b3f 41ac 7e3f 4b9c 7e3f
000000b0: b74e 7e3f d038 803f 65b1 7e3f da67 803f
000000c0: 5f6e 783f 86fb 803f f145 7f3f fe74 813f
000000d0: 0387 7e3f 019c 7b3f c3c6 813f 4aea 7d3f
000000e0: 6d1b 823f 9ce6 7b3f 7fd4 793f 0470 803f
000000f0: 9f82 7e3f 0595 7e3f 4181 803f 0b3f 803f
00000100: 5e4e 7f3f 2704 7b3f 11ee 7c3f 7c4c 7c3f
00000110: 4a63 803f 4ddb 813f 3955 813f 64eb 803f
00000120: 61df 833f cd6b 813f 0dfa 7a3f 0131 823f
00000130: b492 833f bf6f 7a3f 7574 813f 31ae 803f
00000140: a6e9 803f 2fe4 7e3f 3ecd 813f 4e0e 7e3f
00000150: 8242 813f 5fc4 803f 0c2d 803f 8798 7e3f
00000160: 7270 873f 832e 7c3f 6109 7b3f a99b 813f
00000170: e687 7f3f b4bb 803f aa49 773f db19 7f3f
00000180: 47d3 7d3f 4b00 793f b672 7a3f 29b0 7e3f
00000190: dba6 813f 2f0e 7c3f 0678 823f 3820 813f
000001a0: f9c2 7c3f e08d 7f3f 18d4 7b3f 66f7 813f
000001b0: ead8 813f f21a 7b3f e80a 7b3f 9650 803f
000001c0: 0ef1 7d3f 2238 7e3f 1a35 803f 5f27 7b3f
000001d0: 11b7 803f 6fe1 7b3f cfee 7d3f 7ce7 7b3f
000001e0: 1159 813f 9469 813f 7d11 823f 5a27 823f
000001f0: cdfd 7a3f e20e 7a3f 759b 863f 491c 803f

mlp.0.block.2.bias f4 [128]
-0.012864834 -0.004242805 -0.017021034 -0.009260724 -0.0022645842 -0.0020310075 0.005615553 -0.0012783875
0.001860995 0.0016666598 -0.00060518924 -0.013665126 -0.00577533 -0.00059111224 -0.014168172 -0.011327701
0.003909718 0.00576851 0.0015200491 0.014360112 -0.007661577 -0.011945388 0.011882295 -0.0055937343
-0.015333322 0.005307513 -0.009622271 0.012660805 0.008356472 -0.0042956714 -0.014931251 0.00358376
-0.0124865975 0.011609039 -0.02285595 -0.015077384 -0.004033405 0.017933367 0.010610419 0.010440636
-0.0025920584 -0.002979047 0.007602037 -0.0072827186 -0.0047688545 -0.00078470574 0.011817056 0.004467803
-0.0005891575 0.010861115 0.0136429155 0.0037021625 -0.006008454 0.01031867 0.011071546 0.012701032
-0.009903506 0.005481914 0.0059312237 -0.0059481 0.006728222 0.010662879 -7.914598e-05 -0.0076956865
0.0115263 -0.0011394921 -0.0045465804 -0.0036995674 -0.0069504697 -0.019589938 -0.0025476373 0.009884891
0.011040675 0.012153756 0.002952873 -0.0014896446 0.00345369 -0.0047892733 -0.0064209625 -0.0009199032
0.0010892395 -0.0026433673 0.0020635508 -0.004162021 0.009120541 0.00035001006 0.000106296226 0.0053570042
-0.0072834007 -0.0041394643 -0.0007578759 0.009683599 0.009283751 0.0003570066 -0.020149278 0.002275746
-0.007205424 0.0021392994 -0.015178076 0.004059424 -2.9666144e-05 -0.022971092 0.008822656 0.008180645
0.0026490078 -0.009555576 -0.015886912 0.011163778 -0.0055226297 0.011462831 -0.009524554 -0.020816209
0.0008774727 -0.004860745 -0.0021878332 0.00978879 -0.013329739 -0.0013118021 0.006087009 -0.007852355
-0.00057228166 0.0076018977 -0.012177067 -0.00359427 0.010057134 0.0098039815 -0.0011561095 -0.005437458
00000000: 06c7 52bc 3a07 8bbb b26f 8bbc 4bba 17bc
00000010: 6b69 14bb a71a 05bb ac02 b83b 918f a7ba
00000020: a1ec f33a d373 da3a 90a5 1eba b1e3 5fbc
00000030: fb3e bdbb dff4 1aba 9f21 68bc d297 39bc
00000040: 171d 803b c505 bd3b 623c c73a ad46 6b3c
00000050: f70d fbbb 97b6 43bc f5ad 423c a54b b7bb
00000060: 9d38 7bbc a5ea ad3b bba6 1dbc 446f 4f3c
00000070: 95e9 083c b4c2 8cbb 35a2 74bc 84dd 6a3b
00000080: 9694 4cbc d733 3e3c 673c bbbc 2207 77bc
00000090: a72a 84bb ffe8 923c 53d7 2d3c 340f 2b3c
000000a0: 86df 29bb 1d3c 43bb 821a f93b dfa3 eebb
000000b0: 0d44 9cbb b6b4 4dba 539c 413c a666 923b
000000c0: b171 1aba d1f2 313c 8986 5f3c fb9f 723b
000000d0: 91e2 c4bb a40f 293c 6e65 353c fd17 503c
000000e0: 5142 22bc a1a1 b33b b65a c23b 47e8 c2bb
000000f0: 6b78 dc3b 5bb3 2e3c 2dfb a5b8 192c fcbb
00000100: ced8 3c3c 035b 95ba 7bfb 94bb 7174 72bb
00000110: c4c0 e3bb 147b a0bc 43f6 26bb 3df4 213c
00000120: f3e3 343c 8c20 473c fd84 413b 2e40 c3ba
00000130: 4e57 623b 56ef 9cbb f066 d2bb a925 71ba
00000140: d0c4 8e3a 583c 2dbb a33c 073b 9061 88bb
00000150: 526e 153c 8e81 b739 5aeb de38 cf89 af3b
00000160: 98a9 eebb 58a4 87bb 31ac 46ba f5a7 1e3c
00000170: e01a 183c 9d2c bb39 1910 a5bc af24 153b
00000180: 7a1b ecbb 7d33 0c3b 77ad 78bc eb04 853b
00000190: 8fdb f8b7 df2d bcbc e78c 103c 1d08 063c
000001a0: fa9a 2d3b fe8e 1cbc 4525 82bc 47e8 363c
000001b0: 2df7 b4bb 99ce 3b3c e00c 1cbc c186 aabc
000001c0: 3206 663a e246 9fbb c061 0fbb 2961 203c
000001d0: fa64 5abc c6f0 abba 8875 c73b 2aa7 00bc
000001e0: 2c05 16ba 5719 f93b 5282 47bc d88d 6bbb
000001f0: adc6 243c e1a0 203c 9988 97ba b42c b2bb

mlp.1.block.0.weight f4 [128, 128]
-0.051379975 0.063932136 0.012702671 0.019268287 0.0645377 0.060669202 0.037651516 0.08250403
-0.024981106 -0.08793139 0.057660196 0.051192064 -0.03423747 -0.05640732 -0.012510623 -0.058667146
0.02291688 0.07996029 0.051025547 -0.08719042 -0.014272614 0.07974198 -0.010831749 -0.013256089
-0.04957376 -0.0395703 -0.081062056 -0.051141664 0.013679824 -0.008108556 -0.055896543 0.043151088
0.007246168 0.06755132 0.035475098 0.05136419 -0.07480485 0.07452058 -0.04936492 0.08496834
0.07803256 -0.08870617 -0.0047508124 -0.08594573 -0.040896863 -0.1004691 0.009211835 -0.0015491109
0.019728977 -0.050172362 0.07651235 -0.04084765 -0.01470153 -0.009623781 0.038695157 -0.06503892
0.0010422112 0.03736916 0.038236685 0.043787647 -0.066544324 -0.034827854 0.07334554 -0.033785686
-0.0063653965 -0.044221792 -0.048950754 -0.031687103 -0.07029946 -0.04998627 -0.08201168 0.05014544
0.030087605 -0.075558774 -3.7925616e-05 -0.039171413 -0.06739766 0.007539807 -0.007060455 0.024034135
0.0047510057 -0.04369156 0.0822628 -0.05858758 0.08217397 -0.056262664 -0.00254414 -0.040883202
-0.04703856 -0.044833645 0.05112938 -0.05430217 0.053100996 -0.031147005 -0.05377215 -0.023022527
-0.04730986 0.0639412 -0.013235457 -0.073756926 0.05196007 0.042410854 -0.035257738 -0.07841649
-0.0320276 0.0092443265 -0.05845666 0.075806215 -0.020298181 0.040807314 -0.061601337 -0.008033018
0.037040606 -0.039247986 0.025347482 0.05226518 0.06914208 0.04159096 -0.0054331482 0.0036914712
-0.07294902 0.023497093 -0.045219317 -0.048046116 0.07788071 -0.066325225 0.06240963 -0.04118845
0.045560896 0.06417326 0.028124034 0.09219641 -0.079025574 0.016704855 -0.068004735 -0.0733007
-0.05946135 -0.017055716 -0.03399113 -0.047910646 -0.013449361 -0.049784467 0.0420379 -0.00032808803
0.052446324 0.043704566 0.011130256 -0.05389776 -0.041778017 -0.03374967 0.025966808 0.061129082
0.024844991 -0.07655521 -0.03826633 0.052917335 -0.060010597 -0.048997384 0.07900401 0.02882146
0.03482525 0.01944865 -0.07699437 -0.09846093 0.00821465 -0.0040551876 0.060905725 0.07070751
-0.025667358 -0.0021671646 -0.027604178 0.046831414 -0.06426812 0.041609954 0.08107869 0.019679904
0.074983634 -0.02027303 0.044005953 0.041807104 -0.05107367 -0.02241963 -0.03916508 0.07496366
0.009727506 0.043203026 -0.030306214 -0.005618402 0.046341144 0.01800008 -0.06046717 -0.07478784
-0.076200575 -0.0014338995 0.07168977 0.029103236 -0.01421954 -0.022272792 -0.051442217 0.019667502
0.062507175 0.054375075 0.024574153 -0.04488551 0.018830173 0.044479936 -0.028756948 -0.03353122
-0.015062208 -0.05034399 -0.032688722 -0.05870077 0.031553652 0.040991228 0.0027321244 0.01877626
-0.09016661 -0.013067317 -0.053772077 -0.08590305 0.06916454 0.080328494 -0.05061956 -0.025012681
0.020564673 -0.06166963 0.0072587295 0.062631235 -0.014643354 0.0019483722 -0.09244978 0.019296186
-0.041896135 -0.07858392 -0.0022096934 0.022711227 -0.04875837 0.074795716 -0.044048555 -0.032409307
0.037477948 0.040199533 0.0024416775 0.046218064 0.06451654 0.0216466 -0.082245484 0.0046542524
-0.07678145 -0.056735598 0.080606356 0.0051977374 -0.02686116 0.06615207 0.082343854 -0.039177455
00000000: cf73 52bd daee 823d dd1e 503c 87d8 9d3c
00000010: 572c 843d 4580 783d 7a38 1a3d dff7 a83d
00000020: 2da5 ccbc 5f15 b4bd 192d 6c3d c5ae 513d
00000030: 973c 0cbd 5d0b 67bd 5bf9 4cbc f64c 70bd
00000040: 2ebc bb3c 38c2 a33d 2a00 513d e490 b2bd
00000050: afd7 69bc c34f a33d a677 31bc 1130 59bc
00000060: db0d 4bbd 7814 22bd dd03 a6bd ec79 51bd
00000070: 5721 603c c0d9 04bc c6f3 64bd 32bf 303d
00000080: 4371 ed3b 5958 8a3d 564e 113d 4263 523d
00000090: 4933 99bd 3f9e 983d df32 4abd e203 ae3d
000000a0: 89cf 9f3d 95ab b5bd b4ac 9bbb 5104 b0bd
000000b0: 7883 27bd bec2 cdbd 3ded 163c 890b cbba
000000c0: aa9e a13c 8981 4dbd 82b2 9c3d de4f 27bd
000000d0: b0de 70bc 10ad 1dbc d07e 1e3d 2033 85bd
000000e0: ce9a 883a 6810 193d 129e 1c3d ad5a 333d
000000f0: 6448 88bd a7a7 0ebd 3036 963d dc62 0abd
00000100: d194 d0bb e921 35bd 9680 48bd 56ca 01bd
00000110: 2af9 8fbd 67be 4cbd bdf5 a7bd 4e65 4d3d
00000120: 487a f63c 8fbe 9abd 5212 1fb8 3472 20bd
00000130: c907 8abd 7c10 f73b 645b e7bb 3ce3 c43c
00000140: 53ae 9b3b ecf5 32bd 6679 a83d 88f9 6fbd
00000150: d44a a83d ae73 66bd 96bb 26bb 2575 27bd
00000160: 81ab 40bd 7ca3 37bd 0a6d 513d f46b 5ebd
00000170: 6e80 593d 0128 ffbc 3040 5cbd bd99 bcbc
00000180: fcc7 41bd 9bf3 823d 88d9 58bc df0d 97bd
00000190: 15d4 543d 01b7 2d3d 6b6a 10bd d398 a0bd
000001a0: 5f2f 03bd 8475 173c 4070 6fbd 4a40 9b3d
000001b0: 5f48 a6bc 9225 273d af51 7cbd eb9c 03bc
000001c0: e4b7 173d 7fc2 20bd 86a5 cf3c 0314 563d
000001d0: 5d9a 8d3d 485b 2a3d 8d08 b2bb 9cec 713b
000001e0: 4c66 95bd fa7c c03c e437 39bd 01cc 44bd
000001f0: ec7f 9f3d 85d5 87bd 3da1 7f3d 38b5 28bd
00000200: 109e 3a3d 456d 833d 6064 e63c 79d1 bc3d
00000210: 29d8 a1bd 9fd8 883c 1146 8bbd ad1e 96bd
00000220: bf8d 73bd 6eb8 8bbc 483a 0bbd f43d 44bd
00000230: b55a 5cbc ccea 4bbd ef2f 2c3d 3b03 acb9
00000240: f5d1 563d 8f03 333d ad5b 363c e6c3 5cbd
00000250: 6d1f 2bbd 183d 0abd 58b8 d43c 7d62 7a3d
00000260: b987 cb3c fac8 9cbd 28bd 1cbd d9bf 583d
00000270: accd 75bd 7bb1 48bd dbcc a13d fc1a ec3c
00000280: eca4 0e3d c652 9f3c 39af 9dbd e2a5 c9bd
00000290: bd96 063c 61e1 84bb 4878 793d 19cf 903d
000002a0: 5a44 d2bc fd06 0ebb 2822 e2bc 4cd2 3f3d
000002b0: 019f 83bd 336f 2a3d 960c a63d c037 a13c
000002c0: 0591 993d a013 a6bc 963f 343d ed3d 2b3d
000002d0: a032 51bd 5fa9 b7bc 906b 20bd 8c86 993d
000002e0: 1e60 1f3c a8f5 303d bd44 f8bc 921a b8bb
000002f0: 36d0 3d3d e774 933c 6cac 77bd 5e2a 99bd
00000300: 0c0f 9cbd aff1 bbba 16d2 923d e969 ee3c
00000310: 13f9 68bc 6e75 b6bc 13b5 52bd be1d a13c
00000320: c303 803d 66b8 5e3d bc4f c93c ded9 37bd
00000330: bc41 9a3c 9830 363d b193 ebbc 0858 09bd
00000340: 7bc7 76bc 8035 4ebd 9ce4 05bd 3870 70bd
00000350: 673e 013d 6be6 273d 710d 333b acd0 993c
00000360: 46a9 b8bd 4d18 56bc 1c40 5cbd f0ed afbd
00000370: 23a6 8d3d 4483 a43d 7556 4fbd 65e7 ccbc
00000380: 3f77 a83c 4b99 7cbd a3da ed3b ce44 803d
00000390: aeea 6fbc 8660 ff3a 4f56 bdbd 0913 9e3c
000003a0: 489b 2bbd 9bf0 a0bd 81d0 10bb e50c ba3c
000003b0: dbb6 47bd 7f2e 993d 426c 34bd 9fbf 04bd
000003c0: 7a82 193d 44a8 243d 8d04 203b 274f 3d3d
000003d0: 3f21 843d 3654 b13c 5270 a8bd b382 983b
000003e0: 983f 9dbd 9663 68bd f214 a53d c851 aa3b
000003f0: ef0b dcbc bd7a 873d e5a3 a83d 8a78 20bd

mlp.1.block.0.bias f4 [128]
-0.008615348 0.09562611 0.08656703 -0.0130261425 -0.090698734 0.041286778 -0.045721 -0.0024336744
-0.023194406 -0.066396095 0.030504897 -0.037869483 0.011433217 -0.026815081 -0.00089702883 -0.07053205
-0.06284825 -0.0708755 0.021592718 -0.021672735 0.08283163 -0.034287404 -0.06547033 0.06486221
0.07460396 0.07941008 -0.07448538 -0.05227225 0.07223175 0.026037047 0.07304897 -0.007586499
0.03484186 0.033722594 -0.024292463 -0.064647764 0.006673798 -0.060038075 -0.02532448 -0.08871589
-0.07485849 -0.078674965 0.06989798 -0.057856873 0.045138657 0.09175053 -0.0645004 -0.037944872
0.00027571703 -0.045171343 0.0671198 -0.04642045 0.021178288 -0.07031339 0.0065572867 0.059097543
0.06173408 0.05592502 -0.0858319 -0.058710925 -0.044372037 0.0019533297 -0.032237265 0.00853982
0.05776903 -0.028576441 0.05250283 -0.028749522 0.0054114475 0.051806793 -0.06009039 -0.004354557
-0.039232716 -0.05452482 0.083260715 0.057113774 0.009121763 -0.0137808155 -0.032224864 -0.06188221
0.077553995 -0.02798312 0.074011 0.004360709 0.056361344 -0.037808463 -0.031156372 -0.025887284
-0.032004207 -0.03371756 0.06969837 0.0009868494 -0.03216695 -0.067359544 0.102929994 -0.0076944944
0.07364189 0.0098325685 -0.04850918 -0.030511398 0.027226033 -0.008498331 0.06979599 -0.09584357
-0.061472215 0.08715517 -0.09115765 -0.024050625 0.0028976954 -0.013908512 0.037502296 -0.054323163
-0.065397866 0.06252201 0.08557447 -0.06969324 0.0253032 0.048920337 0.04044797 0.09202788
-0.014170392 -0.050409205 -0.043185692 -0.046154402 0.09692994 0.052562002 -0.059009396 0.013725517
00000000: 6327 0dbc 9fd7 c33d 0e4a b13d 9a6b 55bc
00000010: 42c0 b9bd 531c 293d f145 3bbd 487e 1fbb
00000020: 3202 bebc adfa 87bd 68e5 f93c 081d 1bbd
00000030: 6352 3b3c 4dab dbbc 9626 6bba 1c73 90bd
00000040: 95b6 80bd 2d27 91bd 36e3 b03c 058b b1bc
00000050: a1a3 a93d f370 0cbd 4f15 86bd 7ad6 843d
00000060: f6c9 983d c1a1 a23d ca8b 98bd 6d1b 56bd
00000070: 3dee 933d a54b d53c b39a 953d 2b98 f8bb
00000080: 57b6 0e3d b420 0a3d fd00 c7bc 0c66 84bd
00000090: e0af da3b 7cea 75bd 4975 cfbc adb0 b5bd
000000a0: 684f 99bd 5720 a1bd ac26 8f3d 54fb 6cbd
000000b0: 50e3 383d b4e7 bb3d c918 84bd 156c 1bbd
000000c0: 1d8e 9039 9605 39bd 1b76 893d 5f23 3ebd
000000d0: 177e ad3c 7700 90bd 82de d63b 4410 723d
000000e0: e0dc 7c3d a211 653d a3c8 afbd de7a 70bd
000000f0: 74bf 35bd 6f03 003b 390b 04bd 9aea 0b3c
00000100: 389f 6c3d 2419 eabc 350d 573d 1e84 ebbc
00000110: 8352 b13b 5c33 543d 5721 76bd acb0 8ebb
00000120: 7cb2 20bd 6b55 5fbd 9884 aa3d 22f0 693d
00000130: 7273 153c eec8 61bc 38fe 03bd 3378 7dbd
00000140: a1d4 9e3d db3c e5bc 1493 973d 47e4 8e3b
00000150: 27db 663d 0cdd 1abd a63b ffbc 9211 d4bc
00000160: d816 03bd 6d1b 0abd 05be 8e3d 2c59 813a
00000170: 7ec1 03bd cdf3 89bd f6cc d23d 1922 fcbb
00000180: 8fd1 963d c818 213c 90b1 46bd 0af3 f9bc
00000190: 2109 df3c 953c 0bbc 33f1 8e3d a249 c4bd
000001a0: 4aca 7bbd 697e b23d ddb0 babd d105 c5bc
000001b0: 43e7 3d3b 87e0 63bc 029c 193d f781 5ebd
000001c0: 51ef 85bd 8a0b 803d ab41 af3d 54bb 8ebd
000001d0: a848 cf3c b160 483d c5ac 253d 1d79 bc3d
000001e0: ef2a 68bc e279 4ebd 7be3 30bd 660c 3dbd
000001f0: 3483 c63d 414b 573d d6b3 71bd fee0 603c

mlp.1.block.2.weight f4 [128]
0.98514706 0.98918474 1.0094652 0.9999779 0.98282933 1.0133846 1.0078131 0.97587764
0.9976764 1.0197837 1.0087087 0.99836445 1.0098473 0.9960187 0.9949844 1.0042293
0.99965894 1.0042852 1.0061417 0.98990506 1.0009612 0.9955313 1.011999 0.9832008
1.0040116 0.9971532 0.9955509 1.0169764 0.99379873 0.99579644 1.0112832 1.0013381
0.98317176 1.0011944 0.9993911 1.0181203 0.9995578 1.0055639 0.98522955 0.99343777
0.9908943 0.99759626 1.017377 0.997374 0.98976696 0.9919194 0.98902595 1.0076127
1.0123274 0.9843586 1.0030107 1.0032798 1.0029883 0.9879474 0.98952585 0.9858016
1.0021874 1.0126247 0.9929308 1.0078958 1.014352 1.0012915 1.0061717 0.9897583
1.0055884 1.0006945 0.98444587 0.98440635 0.98695445 0.99710387 1.0108126 1.0090873
1.0201361 0.9731369 1.0240071 0.9869833 0.99019414 0.9928646 1.0041215 0.982093
1.0117598 0.99568605 1.0007666 0.98848414 1.021212 0.98249996 0.9908144 1.0030493
0.99771214 1.0001588 0.99855727 1.0015681 0.9679078 0.9961602 1.0099387 0.9950018
0.9958808 0.99232125 1.0115718 1.0027481 0.9971514 0.9947055 0.99869573 1.0066493
1.0123458 1.0127082 0.990769 1.0068845 0.98983765 0.9909299 0.98969597 1.004767
0.998383 0.9816919 1.0078634 0.99090064 1.0281566 1.0132737 0.9985117 0.98914826
0.98571384 1.0032228 0.99787086 0.9684687 1.0103385 0.9901166 1.0091482 0.99306285
00000000: 9932 7c3f 363b 7d3f 2836 813f 8dfe 7f3f
00000010: b49a 7b3f 96b6 813f 0500 813f 1ed3 793f
00000020: b867 7f3f 4688 823f 5e1d 813f d094 7f3f
00000030: ad42 813f 15fb 7e3f 4cb7 7e3f 968a 803f
00000040: a6e9 7f3f 6b8c 803f 40c9 803f 6b6a 7d3f
00000050: 7f1f 803f 24db 7e3f 2f89 813f 0cb3 7b3f
00000060: 7483 803f 6f45 7f3f 6cdc 7e3f 482c 823f
00000070: 9869 7e3f 84ec 7e3f ba71 813f d92b 803f
00000080: 25b1 7b3f 2327 803f 18d8 7f3f c451 823f
00000090: 05e3 7f3f 51b6 803f 0138 7c3f f051 7e3f
000000a0: 40ab 7d3f 7862 7f3f 6939 823f e753 7f3f
000000b0: 5e61 7d3f 6eee 7d3f ce30 7d3f 74f9 803f
000000c0: f293 813f edfe 7b3f a862 803f 796b 803f
000000d0: ec61 803f 1fea 7c3f 9151 7d3f 7e5d 7c3f
000000e0: ad47 803f b09d 813f b730 7e3f bb02 813f
000000f0: 49d6 813f 522a 803f 3cca 803f cd60 7d3f
00000100: 1fb7 803f c216 803f a504 7c3f 0e02 7c3f
00000110: 0ca9 7c3f 3342 7f3f 4f62 813f c629 813f
00000120: d293 823f 801f 793f aa12 833f f0aa 7c3f
00000130: 5d7d 7d3f 602c 7e3f 0e87 803f 726a 7b3f
00000140: 5881 813f 48e5 7e3f 1f19 803f 4c0d 7d3f
00000150: 13b7 823f 1e85 7b3f 03a6 7d3f eb63 803f
00000160: 106a 7f3f 3405 803f 73a1 7f3f 6233 803f
00000170: cec8 773f 5b04 7f3f ac45 813f 70b8 7e3f
00000180: 0bf2 7e3f c408 7e3f 2f7b 813f 0d5a 803f
00000190: 5045 7f3f 05a5 7e3f 86aa 7f3f e2d9 803f
000001a0: 8c94 813f 6ca0 813f 0aa3 7d3f 97e1 803f
000001b0: 0066 7d3f 95ad 7d3f b75c 7d3f 349c 803f
000001c0: 0796 7f3f 2950 7b3f ab01 813f aaab 7d3f
000001d0: a39a 833f f4b2 813f 769e 7f3f d238 7d3f
000001e0: be57 7c3f 9b69 803f 7774 7f3f 91ed 773f
000001f0: c652 813f 4878 7d3f c52b 813f 5e39 7e3f

mlp.1.block.2.bias f4 [128]
0.0013681689 0.0044164713 -0.008750329 0.004256343 0.002955979 0.004345862 -0.0060890554 -0.0053156503
0.002806223 -0.0057647247 -0.0053998884 -0.00029192472 0.002475246 0.005761835 -0.0047057043 0.008885786
0.0060277022 0.00036419326 -0.0013527956 0.009426165 0.0020513064 0.0096117845 0.0063876654 -0.012787763
0.0075765136 0.008094123 0.005730272 -0.0027315924 -0.0004713238 0.015040117 0.0039690156 -0.0054162997
0.0022975826 0.009532914 -0.0025501193 0.0003340507 0.007882803 0.0039869687 0.003368449 -0.007808125
-0.0024545612 -0.007243283 0.006163284 -0.0037856246 -0.0034810617 0.0008449155 -0.0019988602 0.0034283528
0.0043532075 0.0037827655 -0.0069740154 -0.0033794583 -0.0005773985 0.0066153267 -0.00042760582 -0.00619974
-0.009558174 0.0050697676 -0.014423625 -0.007663094 0.004765422 -0.009201063 -0.0008407908 -0.0023419554
0.0021804457 -0.0040273056 -0.0019066405 0.010733479 0.008167147 -0.0034812947 -0.0073386426 0.0012087572
0.00047898354 -0.004844334 -0.000252457 0.0039455094 -0.00049054093 -0.001416934 0.0011781214 -0.0019782733
0.0070935693 -0.0016715077 0.005963003 -0.008214283 0.005744571 0.008225632 0.0013389554 0.0022499894
0.0023471396 0.009768927 0.0035395115 -0.009088683 0.011800314 0.004293559 2.2002694e-05 -0.0049745715
0.0006046757 0.0022890707 -7.597824e-05 0.015611376 -0.0030668748 0.014040525 0.00552288 -0.016181
-0.0030101903 0.00021315088 0.0018840438 -0.003175996 -0.002990741 -0.0017245736 -0.0052636047 -0.011289444
-0.012165923 0.0013821821 -0.00012561229 0.007077999 -0.0018531792 -0.005150844 -0.0056158924 0.005247938
0.00413623 0.0014433928 -0.0022112082 0.0027994262 0.011317013 0.01082962 -0.00035179936 -0.00048678572
00000000: 2154 b33a 0cb8 903b 8a5d 0fbc cb78 8b3b
00000010: 19b9 413b bc67 8e3b b386 c7bb e82e aebb
00000020: 9ce8 373b 04e6 bcbb 8cf1 b0bb 790d 99b9
00000030: bd37 223b c6cd bc3b 4f32 9abb b095 113c
00000040: 0884 c53b 31f1 be39 4a50 b1ba 3470 1a3c
00000050: 366f 063b bf7a 1d3c 9f4f d13b c483 51bc
00000060: 6744 f83b 369d 043c 01c5 bb3b 8404 33bb
00000070: 021c f7b9 d36a 763c 840e 823b 377b b1bb
00000080: 0a93 163b f02f 1c3c e71f 27bb 8723 af39
00000090: df26 013c 1ea5 823b 32c1 5c3b 4ddb ffbb
000000a0: b4dc 20bb 1059 edbb 60f5 c93b 3e18 78bb
000000b0: 8622 64bb 527d 5d3a 4fff 02bb 37ae 603b
000000c0: 5aa5 8e3b 46e8 773b 4886 e4bb e779 5dbb
000000d0: 8f5c 17ba 62c5 d83b 4830 e0b9 3027 cbbb
000000e0: e399 1cbc 4b20 a63b 1151 6cbc b11a fbbb
000000f0: 4227 9c3b 0ec0 16bc 8468 5cba 7e7b 19bb
00000100: cfe5 0e3b 7df7 83bb 3de8 f9ba 79db 2f3c
00000110: 7fcf 053c 6f26 64bb ff78 f0bb 296f 9e3a
00000120: 1520 fb39 38bd 9ebb 345c 84b9 5549 813b
00000130: a597 00ba 6ab8 b9ba 326b 9a3a eba5 01bb
00000140: 2c71 e83b 7e16 dbba 4b65 c33b 3395 06bc
00000150: f43c bc3b cdc4 063c e37f af3a 8f74 133b
00000160: 78d2 193b d90d 203c 26f7 673b b3e8 14bc
00000170: 1b56 413c fcb0 8c3b 6d92 b837 bb01 a3bb
00000180: 1983 1e3a 3c04 163b 8256 9fb8 dbc6 7f3c
00000190: 9ffd 48bb 3b0a 663c 46f9 b43b 048e 84bc
000001a0: 9d46 45bb 4181 5f39 05f2 f63a 5f24 50bb
000001b0: 4f00 44bb 160b e2ba 517a acbb 5cf7 38bc
000001c0: 9453 47bc 562a b53a cbb6 03b9 8fee e73b
000001d0: 60e6 f2ba 69c8 a8bb 8505 b8bb e5f6 ab3b
000001e0: 3689 873b 3a30 bd3a ebe9 10bb 9476 373b
000001f0: fe6a 393c b86e 313c b671 b8b9 4637 ffb9

mlp.2.block.0.weight f4 [128, 128]
0.02119837 0.069764294 0.04954526 0.028246386 -0.088328786 0.02533118 -0.07479732 -0.04329391
0.04408107 0.08130916 -0.080544375 -0.09764833 -0.018031158 0.06363313 0.07612076 0.06941046
0.03796016 0.033839647 0.0077395933 0.0889051 -0.03928578 0.082897246 0.06402733 0.037098784
0.061185393 -0.05330933 -0.08690316 -0.014007185 -0.003896563 0.03067928 -0.0666448 0.019638881
-0.031769 0.10319474 0.0909614 0.053745706 0.004373179 -0.10940207 -0.06547479 -0.020828532
-0.048851956 -0.021605471 0.006211681 -0.068570465 -0.002743945 0.06267735 -0.0003016785 0.0386189
-0.038762614 0.016625525 -0.05799677 0.02725763 0.01056594 0.04025414 -0.077208996 -0.08179158
0.087286 0.010714665 0.03455304 0.060188502 0.04806792 0.056088045 0.026232084 0.028715594
-0.042629838 0.07294632 0.053867888 0.071749255 -0.023052676 0.070556104 -0.012587058 0.005364233
0.007014515 -0.01937899 -0.019596683 -0.04858676 0.010322393 0.05627716 -0.07966805 -0.08844039
0.0051001296 -0.059871674 -0.048757356 0.0009964155 0.021681089 -0.076619565 0.06924651 -0.013778174
-0.042395633 -0.049335193 0.03987194 -0.0034836303 -0.015989507 0.03063254 -0.053485606 0.057329692
0.05707436 -0.0050944746 -0.042052113 -0.013672333 -0.026835939 0.028312277 0.082779154 0.085458994
-0.061352935 0.05730139 0.013209633 -0.063075185 -0.092822 -0.014718626 0.08189667 -0.044574324
-0.044135015 -0.03913992 -0.08122629 0.012068429 0.015366761 -0.09558702 -0.082449675 0.021167923
-0.035936806 0.061129652 -0.057778455 -0.025506841 0.06472033 -0.04257277 0.034094427 0.07125989
0.03024992 0.005209227 0.0048383838 0.027253943 -0.07328765 -0.058953017 -0.00395371 -0.04875637
-0.024121223 0.082746275 0.06550069 -0.10352651 0.029111542 0.05613186 -0.052688733 0.06860563
-0.06860382 -0.049833644 0.041343313 0.014428831 0.020966748 -0.04951689 -0.021741537 0.05604284
0.011908932 0.02031716 -0.07337764 0.015292157 -0.036209665 -0.059498664 -0.0012517548 0.019725727
-0.060059845 0.02998122 -0.018726606 -0.098638035 0.07288242 -0.033449296 0.05701475 -0.052257266
-0.06911504 0.07790617 -0.064566314 -0.061555993 -0.07757317 0.080065966 0.06321972 0.02327079
-0.079610266 -0.07351865 0.03724451 -0.011677645 0.03583211 -0.103257865 -0.03500904 0.024448102
0.030845491 -0.046811093 0.027006537 -0.0848443 -0.06441156 0.019738574 0.09184138 -0.00983013
-0.07932864 -0.022229932 -0.021139571 -0.005612151 -0.08285124 -0.0694446 0.07904048 -0.01650427
-0.0040695285 0.016500153 -0.045201305 0.072677344 0.08283676 -0.05156003 0.086016715 0.0458843
0.009164164 0.09068912 0.0692827 -0.07526866 0.03733548 0.062934056 -0.03193483 0.058657553
-0.047247082 -0.0025887555 0.084012724 -0.07439444 0.013747157 -0.08045698 0.105659984 0.038889196
-0.013173669 0.004733312 -0.045933865 0.0846456 -0.03670364 0.0037838172 0.0718784 0.043077335
0.0739656 0.056194387 -0.044138893 -0.07973819 -0.05835772 -0.032068156 0.06657147 0.007771771
-0.038319346 0.08893672 0.08187015 -0.029480774 0.030881954 -0.074598394 -0.083352864 -0.009746064
0.06835483 0.034520708 0.013398978 0.05032959 -0.07025073 0.017680854 0.0010035876 0.053662013
00000000: 34a8 ad3c 95e0 8e3d f8ef 4a3d f764 e73c
00000010: b9e5 b4bd 5683 cf3c 562f 99bd f454 31bd
00000020: 5a8e 343d 6b85 a63d 73f4 a4bd d9fb c7bd
00000030: 14b6 93bc 1652 823d 33e5 9b3d 1227 8e3d
00000040: 1d7c 1b3d 719b 0a3d 6a9c fd3b e113 b63d
00000050: 20ea 20bd 08c6 a93d c320 833d e5f4 173d
00000060: 899d 7a3d e25a 5abd 49fa b1bd 647e 65bc
00000070: 7b5d 7fbb 1d53 fb3c 127d 88bd b8e1 a03c
00000080: 3620 02bd c457 d33d f849 ba3d 7524 5c3d
00000090: e24c 8f3b 310e e0bd a617 86bd 99a0 aabc
000000a0: fd18 48bd f5fd b0bc 5b8b cb3b ac6e 8cbd
000000b0: c2d3 33bb fc5c 803d 9a2a 9eb9 da2e 1e3d
000000c0: 8cc5 1ebd 4132 883c 058e 6dbd 654b df3c
000000d0: c41c 2d3c 86e1 243d c01f 9ebd 5882 a7bd
000000e0: 01c3 b23d 908c 2f3c 7d87 0d3d 3888 763d
000000f0: dee2 443d 94bc 653d abe4 d63c f73c eb3c
00000100: a09c 2ebd e164 953d 93a4 5c3d 46f1 923d
00000110: f7d8 bcbc b87f 903d f339 4ebc 73c6 af3b
00000120: 04da e53b b0c0 9ebc 3989 a0bc e902 47bd
00000130: 411f 293c e182 663d 0129 a3bd 3c20 b5bd
00000140: fd1e a73b 003c 75bd cbb5 47bd 289a 823a
00000150: 8a9c b13c b8ea 9cbd 1dd1 8d3d dabd 61bc
00000160: 0ba7 2dbd b313 4abd c250 233d 9e4d 64bb
00000170: 6dfc 82bc 18f1 fa3c b913 5bbd 8ad2 6a3d
00000180: cec6 693d 8def a6bb d63e 2cbd ec01 60bc
00000190: 0bd7 dbbc 26ef e73c 1e88 a93d 2005 af3d
000001a0: 374d 7bbd ddb4 6a3d 376d 583c 902d 81bd
000001b0: 7619 bebd 6426 71bc 71b9 a73d 9193 36bd
000001c0: ebc6 34bd 2e51 20bd f859 a6bd a9ba 453c
000001d0: dec4 7b3c 21c3 c3bd 60db a8bd 5a68 ad3c
000001e0: 7932 13bd 1663 7a3d 1aa9 6cbd b9f3 d0bc
000001f0: 188c 843d c960 2ebd 99a6 0b3d b5f0 913d
00000200: aece f73c 2ab2 aa3b 4e8b 9e3b a943 df3c
00000210: d617 96bd b878 71bd 208e 81bb c2b4 47bd
00000220: df99 c5bc e176 a93d 3a25 863d b505 d4bd
00000230: 547b ee3c 85ea 653d 24d0 57bd 1c81 8c3d
00000240: 2980 8cbd 5d1e 4cbd 9b57 293d e766 6c3c
00000250: 75c2 ab3c 39d2 4abd 4f1b b2bc 2d8d 653d
00000260: ae1d 433c 2c70 a63c 0447 96bd f58b 7a3c
00000270: 9650 14bd dfb4 73bd ec11 a4ba d997 a13c
00000280: 5001 76bd 2d9b f53c 8a68 99bc bd02 cabd
00000290: 6143 953d 2102 09bd 4c88 693d b70b 56bd
000002a0: 308c 8dbd 458d 9f3d 583b 84bd 2322 7cbd
000002b0: afde 9ebd a0f9 a33d 5779 813d 62a2 be3c
000002c0: b50a a3bd f290 96bd b38d 183d 9853 3fbc
000002d0: b1c4 123d dc78 d3bd a465 0fbd 6347 c83c
000002e0: afaf fc3c fdbc 3fbd d03c dd3c d9c2 adbd
000002f0: 35ea 83bd cab2 a13c 5517 bc3d 8e0e 21bc
00000300: 0e77 a2bd 8c1b b6bc e52c adbc 23e6 b7bb
00000310: e9ad a9bd f838 8ebd fadf a13d f633 87bc
00000320: ae59 85bb 542b 873c 0125 39bd dcd7 943d
00000330: 52a6 a93d 9c30 53bd 8829 b03d 2df1 3b3d
00000340: 4a25 163c 38bb b93d 17e4 8d3d 7526 9abd
00000350: 17ed 183d 92e3 803d 19ce 02bd e742 703d
00000360: 2886 41bd 1ca8 29bb dd0e ac3d 1d5c 98bd
00000370: c13b 613c a1c6 a4bd 4364 d83d 474a 1f3d
00000380: 5fd6 57bc e619 9b3b 2625 3cbd ac5a ad3d
00000390: 8e56 16bd ebf9 773b fc34 933d dc71 303d
000003a0: 477b 973d 162c 663d fcca 34bd c74d a3bd
000003b0: 8108 6fbd e659 03bd 9f56 883d 57aa fe3b
000003c0: bff4 1cbd 7424 b63d 8aab a73d aa81 f1bc
000003d0: 27fc fc3c 0bc7 98bd e8b4 aabd f5ad 1fbc
000003e0: 9efd 8b3d 9665 0d3d 6387 5b3c 6626 4e3d
000003f0: 9ddf 8fbd 70d7 903c d08a 833a b3cc 5b3d

mlp.2.block.0.bias f4 [128]
-0.0041024354 -0.025327517 0.036856677 0.004746577 -0.037798017 0.06627135 0.06998075 -0.07586226
-0.05096809 0.008001186 0.040496316 0.0010559579 0.016176973 0.06674344 -0.0720522 0.021979295
0.01779398 -0.06888157 -0.079179585 0.00745704 -0.080763154 -0.08381298 0.015522148 -0.038104355
0.038718246 -0.07809518 0.018138027 -0.032871712 -0.04768186 -0.019031506 0.04899355 0.07570097
0.01094248 -0.011531586 0.0014969469 0.016258573 -0.0016624444 -0.06296231 -0.010054762 -0.036816638
0.028497955 -0.08851295 -0.021546844 -0.06454428 -0.06074451 0.047787078 0.048803665 0.0026345
-0.07565828 -0.0436092 0.054322828 -0.043838862 0.0064732 0.04466634 0.049761668 -0.074758984
0.015164195 -0.082033634 -0.008406206 0.011433817 0.028680913 0.07652154 -0.028612677 0.06598312
-0.06095641 0.03146898 0.07904439 -0.042612035 -0.021056997 -0.075784825 0.04983159 -0.01093935
0.083233945 0.0014712549 0.045746714 0.07308039 0.0038359766 -0.015024889 -0.045602597 0.0049997033
0.02163428 0.042992633 0.073183335 -0.0867993 0.09202772 -0.06362346 -0.030977668 -0.016963733
0.0349315 0.052147835 -0.07077336 0.014287204 0.04002478 -0.020746091 -0.0328834 0.036174428
0.05776679 0.080781735 0.006554554 -0.04592443 0.08228259 0.067510284 0.08143428 0.021242438
-0.03209584 -0.044128064 0.1029376 0.04962415 -0.041577872 -0.022797903 -4.6105193e-05 0.003691758
-0.080925725 0.03593007 0.007354098 -0.050623745 0.05093347 -0.07110138 0.037882887 -0.07560512
-0.06791894 0.0841169 0.048269067 0.07831855 0.07976826 0.03789427 -0.092581026 0.052984077
00000000: b96d 86bb a77b cfbc 07f7 163d 2c89 9b3b
00000010: 18d2 1abd 46b9 873d 1152 8f3d ac5d 9bbd
00000020: eac3 50bd 6817 033c 77df 253d 1168 8a3a
00000030: 9285 843c c9b0 883d 1b90 93bd ec0d b43c
00000040: aec4 913c c811 8dbd e828 a2bd 2f5a f43b
00000050: 2767 a5bd 24a6 abbd 9c50 7e3c 5013 1cbd
00000060: 0697 1e3d 5ef0 9fbd 3396 943c 7da4 06bd
00000070: 0e4e 43bd f6e7 9bbc 76ad 483d 1c09 9b3d
00000080: 1648 333c faee 3cbc 3435 c43a b330 853c
00000090: 61e6 d9ba 62f2 80bd babc 24bc 0bcd 16bd
000000a0: 8b74 e93c 4746 b5bd 0283 b0bc cb2f 84bd
000000b0: 3ccf 78bd 62bc 433d 5ae6 473d 93a7 2c3b
000000c0: baf2 9abd 8f9f 32bd 9d81 5e3d 6190 33bd
000000d0: 231d d43b 0df4 363d e4d2 4b3d 3d1b 99bd
000000e0: 3e73 783c 4001 a8bd 2fba 09bc e854 3b3c
000000f0: 3cf4 ea3c 53b7 9c3d 2265 eabc 2822 873d
00000100: 6ead 79bd 9ee5 003d 06e2 a13d f589 2ebd
00000110: b97f acbc 1335 9bbd 361c 4c3d f63a 33bc
00000120: 8f76 aa3d 1fd7 c03a e860 3b3d 2cab 953d
00000130: 0265 7b3b f42a 76bc cac9 3abd 8dd4 a33b
00000140: 603a b13c 0b19 303d 25e1 953d d5c3 b1bd
00000150: 0779 bc3d 044d 82bd e1c4 fdbc 87f7 8abc
00000160: 5514 0f3d f898 553d a0f1 90bd e014 6a3c
00000170: 06f1 233d b5f3 a9bc beb0 06bd a32b 143d
00000180: df9c 6c3d e570 a53d 96c7 d63b 411b 3cbd
00000190: c683 a83d d542 8a3d 04c7 a63d 9f04 ae3c
000001a0: ed76 03bd a1bf 34bd f3d0 d23d b142 4b3d
000001b0: 8f4d 2abd abc2 babc 1361 41b8 6cf1 713b
000001c0: 63bc a5bd 692b 133d a5fa f03b d85a 4fbd
000001d0: 9d9f 503d 9a9d 91bd 162b 1b3d dbd6 9abd
000001e0: 1619 8bbd 7b45 ac3d c9b5 453d 7a65 a03d
000001f0: 8b5d a33d 0637 1b3d 1f9b bdbd d505 593d

mlp.2.block.2.weight f4 [128]
1.0024883 1.0062046 1.0020145 0.9958748 1.0002778 1.0118611 0.9964565 1.0051305
1.0131233 0.97333264 1.0146651 0.9848799 1.0089223 1.0118879 1.0060849 1.0011048
0.99423057 1.0036232 1.0058877 0.9908243 1.0127559 0.9998366 1.0096592 1.0065938
1.0025753 0.98806787 1.0227922 0.9894593 1.0185379 0.990901 0.98974824 1.0106587
0.99635386 1.0015916 1.0076687 1.0018755 1.005198 1.0111965 0.99862814 0.9932438
0.99291986 0.9916598 0.9950396 1.0058163 1.0033226 0.99496305 0.9997868 1.0075573
0.9941488 0.98901504 0.9906128 0.99489427 1.0046419 1.0105702 0.9891388 0.99431914
0.9947486 1.0013807 0.9698775 1.0024145 1.0025374 1.0025322 1.0139028 1.0075744
0.99565995 1.0021218 0.9787725 1.0068882 0.98970896 1.0157648 1.0161644 1.0127407
0.9885342 0.99346054 0.9894158 0.99052083 1.0167559 1.0040846 0.9944295 0.99255985
1.000766 1.0002785 0.9874642 0.99769247 1.0138804 0.99637043 1.0048552 0.993843
1.0048044 0.99279094 0.99847496 0.9849791 1.003579 1.0013956 1.0053914 0.9969428
0.9843843 1.0002426 1.0169239 1.0110303 1.0015323 1.010421 1.0018778 0.97850406
0.985177 1.0184008 1.0205259 1.0013492 1.0051748 0.98829263 0.9934846 1.0033908
0.99824727 0.9886905 0.98319334 1.0072656 0.9957271 0.9915857 1.0016972 1.021693
1.0112343 0.9895041 1.0092841 0.99225557 0.99746704 1.0015768 0.9972474 0.9893674
00000000: 8951 803f 50cb 803f 0342 803f a7f1 7e3f
00000010: 1a09 803f aa84 813f c617 7f3f 1ea8 803f
00000020: 06ae 813f 542c 793f 8ce0 813f 1721 7c3f
00000030: 5e24 813f 8b85 813f 64c7 803f 3424 803f
00000040: e585 7e3f ba76 803f eec0 803f a9a6 7d3f
00000050: fca1 813f 4bf5 7f3f 833c 813f 11d8 803f
00000060: 6354 803f 04f2 7c3f dbea 823f 344d 7d3f
00000070: 735f 823f b0ab 7d3f 2460 7d3f 445d 813f
00000080: 0c11 7f3f 2734 803f 4afb 803f 753d 803f
00000090: 54aa 803f e36e 813f 18a6 7f3f 3a45 7e3f
000000a0: ff2f 7e3f 6bdd 7d3f eaba 7e3f 97be 803f
000000b0: e06c 803f e6b5 7e3f 07f2 7f3f a3f7 803f
000000c0: 8980 7e3f 1730 7d3f cd98 7d3f 64b1 7e3f
000000d0: 1b98 803f 5d5a 813f 3338 7d3f b38b 7e3f
000000e0: d8a7 7e3f 3e2d 803f e449 783f 1e4f 803f
000000f0: 2553 803f fa52 803f 91c7 813f 33f8 803f
00000100: 92e3 7e3f 8745 803f d690 7a3f b6e1 803f
00000110: 915d 7d3f 9504 823f ad11 823f 7da1 813f
00000120: 9410 7d3f 6e53 7e3f 5b4a 7d3f c692 7d3f
00000130: 0f25 823f d885 803f ef92 7e3f 6718 7e3f
00000140: 1a19 803f 2009 803f 74ca 7c3f c668 7f3f
00000150: d5c6 813f 2212 7f3f 189f 803f 7f6c 7e3f
00000160: 6e9d 803f 8c27 7e3f 0e9c 7f3f 9727 7c3f
00000170: 4775 803f bb2d 803f aab0 803f a537 7f3f
00000180: 9c00 7c3f f307 803f 902a 823f 7169 813f
00000190: 3632 803f 7a55 813f 883d 803f 3e7f 7a3f
000001a0: 8f34 7c3f f55a 823f 98a0 823f 362c 803f
000001b0: 91a9 803f bf00 7d3f 0255 7e3f 1c6f 803f
000001c0: 228d 7f3f d21a 7d3f 8fb2 7b3f 14ee 803f
000001d0: f9e7 7e3f 8fd8 7d3f 9d37 803f d6c6 823f
000001e0: 2070 813f 2450 7d3f 3930 813f 7604 7e3f
000001f0: 005a 7f3f ab33 803f 9b4b 7f3f 2f47 7d3f

mlp.2.block.2.bias f4 [128]
0.0077623054 0.0047255214 0.0017956597 -0.01073821 -0.002637171 -0.016789692 0.0029539247 0.0032133805
-3.4092394e-05 0.01403138 0.005206627 0.0022573455 0.0071880715 0.00397233 0.012217361 0.0074298917
0.004277445 0.0008615108 -0.0022877678 -0.0017622731 5.9258764e-05 -0.0089145675 -0.0004361632 0.0040488965
0.0022955681 -0.00440347 -0.0021336921 -0.0067237746 0.005158314 -0.0071658655 0.009498297 -0.0052410504
-0.001492208 -0.002998705 0.006018107 -0.0091728605 0.0024158587 0.0043013515 0.005622163 0.0009653681
0.008449232 0.0033543783 0.004341132 0.0014486758 0.0037446145 -0.0066125924 0.0045620366 0.011992464
0.0077586435 0.008093138 0.002666478 0.009850577 -0.0014680623 0.004261205 -0.003253598 0.0021167425
-0.005781064 -0.0039674537 0.010586077 -0.0077206753 -0.0032207854 0.004674021 -0.0009458582 -0.006078576
0.0075558405 -0.00032926752 0.004552862 0.00016770438 -0.0074553858 -0.0019244415 0.007251982 0.0025424864
-0.0012812443 0.006907468 0.0121399 -0.004441967 -0.0093996525 0.00010623851 0.0050119828 -0.0035753264
0.000108059874 0.0045198454 -0.008318942 -0.0032727749 0.003959198 0.005961843 -0.012289751 0.0016963976
-0.0060183164 0.003726771 0.0055363444 0.0045795734 -0.0065414915 0.012361682 -0.009249422 0.009315648
0.0011156772 0.0053218356 0.007760704 0.0064577227 -0.0012910428 -0.012597558 0.001838512 0.0038603507
-0.001954361 0.0036526376 0.0024698903 0.0060004964 -0.00015638556 0.00519306 0.004826374 0.002439319
0.0068859686 0.0053596008 -0.008709137 0.0062630433 -0.012073373 -0.0034798195 -0.005600016 0.0019366475
0.005710301 -0.0032738275 -0.0039929934 0.005088589 0.011898747 -0.0016297317 -0.0030078376 0.013645033
00000000: f05a fe3b 8cd8 9a3b 575c eb3a 51ef 2fbc
00000010: 63d4 2cbb 898a 89bc a296 413b 9497 523b
00000020: 6efe 0eb8 e0e3 653c 5a9c aa3b f9ef 133b
00000030: ea89 eb3b 522a 823b 532b 483c 7376 f33b
00000040: cf29 8c3b 03d7 613a 60ee 15bb 13fc e6ba
00000050: 9d8c 7838 680e 12bc d5ac e4b9 9bac 843b
00000060: 3e71 163b fc4a 90bb 6ad5 0bbb 1c53 dcbb
00000070: 1307 a93b a3cf eabb bf9e 1b3c 1ebd abbb
00000080: 3196 c3ba ec85 44bb 8a33 c53b c449 16bc
00000090: 6253 1e3b 5af2 8c3b 1f3a b83b c210 7d3a
000000a0: a66e 0a3c 21d5 5b3b 0e40 8e3b 7ee1 bd3a
000000b0: 3568 753b 72ae d8bb 237d 953b 0a7c 443c
000000c0: 383c fe3b 1599 043c 14c0 2e3b 5164 213c
000000d0: ff6b c0ba 94a1 8b3b 513a 55bb 0cb9 0a3b
000000e0: 146f bdbb 6a01 82bb 3a71 2d3c b8fd fcbb
000000f0: d013 53bb 8828 993b 78f3 77ba cb2e c7bb
00000100: fc96 f73b 8aa1 acb9 2d30 953b cdd9 2f39
00000110: 4f4c f4bb 8b3d fcba 09a2 ed3b d89f 263b
00000120: 6def a7ba 0b58 e23b 6ee6 463c eb8d 91bb
00000130: 0001 1abc 5ecc de38 8f3b a43b 0650 6abb
00000140: 349e e238 361b 943b 2c4c 08bc 0d7c 56bb
00000150: 29bc 813b 905b c33b f45a 49bc a859 de3a
00000160: 4c35 c5bb d83c 743b 396a b53b 3f10 963b
00000170: 025a d6bb a788 4a3c e38a 17bc a9a0 183c
00000180: ea3b 923a cb62 ae3b 814d fe3b 4e9b d33b
00000190: 3538 a9ba fd65 4ebc 3afa f03a f0fd 7c3b
000001a0: bd14 00bb 1761 6f3b e2dd 213b d09f c43b
000001b0: 6efb 23b9 8b2a aa3b 8f26 9e3b fbdc 1f3b
000001c0: b1a3 e13b 979f af3b c5b0 0ebc 373a cd3b
000001d0: 66cf 45bc af0d 64bb 5780 b7bb 1bd7 fd3a
000001e0: 7a1d bb3b b68d 56bb a8d7 82bb 2ebe a63b
000001f0: f6f2 423c b99c d5ba 241f 45bb 6b8f 5f3c
