Output/dummy_network.onnx (onnx, 879 bytes, 2 tensors)

lin.weight f4 [2, 77]
000000 a1 32 15 3d 44 ca a3 bd 89 14 41 3d 32 d2 77 3c
       0.036425237 -0.079975635 0.047138724 0.015125798
000010 33 ef bf bd 28 db 57 3d 94 d7 b5 3d 01 3f 0f 3d
       -0.093717955 0.052699238 0.08879009 0.034972195
000020 72 b3 ce 3d d5 0d 8f 3d f6 33 58 bd 06 09 62 3d
       0.1009282 0.0698506 -0.05278393 0.055184387
000030 a4 e1 d1 3d 35 ed ee 3c 9e d7 8d 3d 28 84 6a 3d
       0.10248116 0.029165844 0.06925891 0.05725494
000040 27 4e 1c 3d 5c 02 9d bd ba 1b 3b bd 0b 61 23 3d
       0.03816047 -0.07666466 -0.04568074 0.03988747
000050 69 5a 93 bd 9c 2f 15 3c 0c c2 96 bd ec 7c 82 bd
       -0.07194979 0.009105589 -0.0736123 -0.06371483
000060 6e a3 c8 3d 66 85 1a bd 66 38 fb 3c 58 b2 99 3d
       0.09796797 -0.037724875 0.030666541 0.075047195
000070 dd 46 c1 3d b5 26 15 3d a6 42 e3 bd 0e 7b d9 bd
       0.09437344 0.036413867 -0.110966966 -0.10619174
000080 8b f9 28 3d 11 08 53 bd 6d 31 b0 3c 45 e5 a0 3d
       0.041253608 -0.051521365 0.021507943 0.0785623
000090 3d 83 55 3d ef fd 8d 3d 1f 1d da 3c cf be 21 3d
       0.05212711 0.069331996 0.026625214 0.03948861
0000a0 7f f9 68 bc 83 fd ba bc 8f 52 c9 bc 7d d1 be bd
       -0.014219641 -0.022825962 -0.0245755 -0.093173005
0000b0 bb 58 0f bc e8 b8 2a 3d c7 e0 c2 3d 98 95 c9 bd
       -0.008749182 0.041680247 0.09515529 -0.09842986
0000c0 30 a0 ed bc 70 70 b4 bd 58 9a cf 3d 6c 27 a2 3c
       -0.029007047 -0.08810508 0.101368606 0.019794188
0000d0 cc 4c e8 bd 08 3d 93 3b 87 0f 5c 3d 2f 6e a6 bc
       -0.11342773 0.0044933595 0.053725746 -0.020316212
0000e0 0e 04 6f bc 0d c7 93 3d 0f 9a c7 bd 10 fe d1 bd
       -0.014588369 0.072157 -0.09746181 -0.10253537
0000f0 21 f1 e8 bd 43 1a 8a bd e2 40 a8 bd f1 c9 db 3d
       -0.11374117 -0.0674329 -0.082155004 0.10731877
000100 b1 b5 38 bd 8c 1f 1a 3c 9c 84 4d 3d e0 09 e8 bd
       -0.04509515 0.009406935 0.050175294 -0.113300085
000110 12 e5 98 3d 84 d9 95 bd 1c d1 93 bd ad 16 b7 bd
       0.07465567 -0.073168784 -0.07217619 -0.08939872
000120 dc de 38 bc b7 09 e5 bd d6 82 31 3d 08 5b 43 bc
       -0.011283603 -0.111834936 0.043337665 -0.011923559
000130 bf 7f c3 bd 2a 83 40 bc b8 f1 01 3c d0 dc 26 bd
       -0.0954585 -0.011750022 0.007931165 -0.040737927
000140 af ab c8 bd 69 b1 55 bd 34 f7 dd bd a7 a3 2a bc
       -0.09798371 -0.052171145 -0.10838166 -0.010414994
000150 1a c7 98 3d 6e 81 06 bd d6 a4 a2 3d fe 2d b4 bd
       0.074598506 -0.032838278 0.07941596 -0.08797835
000160 d6 27 e6 3d 49 d1 db bd 04 3d 93 bd 66 52 4a bd
       0.11238067 -0.10733277 -0.07189372 -0.049394988
000170 e0 de b8 3d 27 fc f4 3b bd 90 a6 bd 78 04 b0 3b
       0.09026885 0.007476348 -0.081330754 0.0053716265
000180 54 66 bb bc a8 8b ac bd 28 e6 e5 3d c3 ce cd 3d
       -0.022875942 -0.08425075 0.112255394 0.10049202
000190 07 97 34 bd 15 1e b0 3c 48 41 a1 3d c6 01 52 bd
       -0.044089343 0.02149872 0.078737795 -0.051271223
0001a0 14 1a 91 3d 51 2d 1d bd 94 23 9e 3d fb b4 48 bd
       0.07085052 -0.038373295 0.0772163 -0.04900072
0001b0 7d 69 6a 3d d4 42 bb bc bd 2d d7 3d d5 06 59 bd
       0.057229508 -0.022859015 0.10506771 -0.05298503
0001c0 08 e3 21 3d b7 0d 5e 3d ec 6d 72 3d 3f 48 0a 3d
       0.039523154 0.0542123 0.05918686 0.033760305
0001d0 79 1b 58 bd a3 71 4b bc 6f 6a 41 bd 03 1e 8f 3d
       -0.052760575 -0.01241723 -0.047220644 0.06988146
0001e0 bf a4 2d bd 56 e4 b4 3c 7a d5 6d 3d d1 33 95 bd
       -0.042393442 0.022081535 0.058064915 -0.07285274
0001f0 74 23 ce 3d 6e 7f 99 3b 70 2d e0 3c e6 ec d7 bd
       0.10065356 0.0046843803 0.027365416 -0.10543232
000200 d1 fb 22 3d 91 8f bf bd 77 61 64 3d ed 2e 4c bc
       0.039790932 -0.09353555 0.055757012 -0.01246236
000210 88 af 8d 3d 47 39 26 bd 66 2f c7 3d 64 ad 25 3c
       0.069182456 -0.040581968 0.097258374 0.01011214
000220 f0 f7 0d bd d6 7a 1d 3d 72 9b bc 3c b1 8d 28 bc
       -0.03466028 0.038447224 0.02302334 -0.010287688
000230 84 b3 de bd 04 c3 e8 bd 85 63 73 bd ee e5 3d bc
       -0.10874084 -0.11365321 -0.05942108 -0.011590464
000240 c8 bc 22 bd 16 58 bd bd 8d 55 ac 3d 26 21 d6 3c
       -0.039730817 -0.09245317 0.08414755 0.026138853
000250 91 e0 42 bd 9b c9 39 3d d9 bd 94 bd 00 24 7b b9
       -0.047577444 0.04535828 -0.07262773 -0.00023950636
000260 af 12 ac 3d a7 94 a0 bd
       0.08402001 -0.07840853

lin.bias f4 [2]
000000 74 f6 7d 3d 4e a7 b8 bc
       0.062002614 -0.022540715
